{"format": "graph-model", "generatedBy": "2.17.0", "convertedBy": "TensorFlow.js Converter v4.20.0", "signature": {"inputs": {"inputs": {"name": "inputs:0", "dtype": "DT_FLOAT", "tensorShape": {"dim": [{"size": "-1"}, {"size": "300"}, {"size": "300"}, {"size": "3"}]}}}, "outputs": {"output_0": {"name": "Identity:0", "dtype": "DT_FLOAT", "tensorShape": {"dim": [{"size": "-1"}, {"size": "2"}]}}}}, "modelTopology": {"node": [{"name": "StatefulPartitionedCall/sequential_1/resnet50_1/conv5_block1_0_conv_1/convolution/merged_input", "op": "Const", "attr": {"value": {"tensor": {"dtype": "DT_FLOAT", "tensorShape": {"dim": [{"size": "1"}, {"size": "1"}, {"size": "1024"}, {"size": "2048"}]}}}, "dtype": {"type": "DT_FLOAT"}}}, {"name": "StatefulPartitionedCall/sequential_1/resnet50_1/conv5_block1_0_bn_1/batchnorm/sub", "op": "Const", "attr": {"dtype": {"type": "DT_FLOAT"}, "value": {"tensor": {"dtype": "DT_FLOAT", "tensorShape": {"dim": [{"size": "1"}, {"size": "1"}, {"size": "1"}, {"size": "2048"}]}}}}}, {"name": "StatefulPartitionedCall/sequential_1/resnet50_1/conv4_block1_0_conv_1/convolution/merged_input", "op": "Const", "attr": {"dtype": {"type": "DT_FLOAT"}, "value": {"tensor": {"dtype": "DT_FLOAT", "tensorShape": {"dim": [{"size": "1"}, {"size": "1"}, {"size": "512"}, {"size": "1024"}]}}}}}, {"name": "StatefulPartitionedCall/sequential_1/resnet50_1/conv4_block1_0_bn_1/batchnorm/sub", "op": "Const", "attr": {"value": {"tensor": {"dtype": "DT_FLOAT", "tensorShape": {"dim": [{"size": "1"}, {"size": "1"}, {"size": "1"}, {"size": "1024"}]}}}, "dtype": {"type": "DT_FLOAT"}}}, {"name": "StatefulPartitionedCall/sequential_1/resnet50_1/conv3_block1_0_conv_1/convolution/merged_input", "op": "Const", "attr": {"value": {"tensor": {"dtype": "DT_FLOAT", "tensorShape": {"dim": [{"size": "1"}, {"size": "1"}, {"size": "256"}, {"size": "512"}]}}}, "dtype": {"type": "DT_FLOAT"}}}, {"name": "StatefulPartitionedCall/sequential_1/resnet50_1/conv3_block1_0_bn_1/batchnorm/sub", "op": "Const", "attr": {"value": {"tensor": {"dtype": "DT_FLOAT", "tensorShape": {"dim": [{"size": "1"}, {"size": "1"}, {"size": "1"}, {"size": "512"}]}}}, "dtype": {"type": "DT_FLOAT"}}}, {"name": "StatefulPartitionedCall/sequential_1/resnet50_1/conv2_block1_0_conv_1/convolution/merged_input", "op": "Const", "attr": {"dtype": {"type": "DT_FLOAT"}, "value": {"tensor": {"dtype": "DT_FLOAT", "tensorShape": {"dim": [{"size": "1"}, {"size": "1"}, {"size": "64"}, {"size": "256"}]}}}}}, {"name": "StatefulPartitionedCall/sequential_1/resnet50_1/conv2_block1_0_bn_1/batchnorm/sub", "op": "Const", "attr": {"value": {"tensor": {"dtype": "DT_FLOAT", "tensorShape": {"dim": [{"size": "1"}, {"size": "1"}, {"size": "1"}, {"size": "256"}]}}}, "dtype": {"type": "DT_FLOAT"}}}, {"name": "StatefulPartitionedCall/sequential_1/resnet50_1/conv1_pad_1/Const", "op": "Const", "attr": {"value": {"tensor": {"dtype": "DT_INT32", "tensorShape": {"dim": [{"size": "4"}, {"size": "2"}]}}}, "dtype": {"type": "DT_INT32"}}}, {"name": "StatefulPartitionedCall/sequential_1/resnet50_1/conv1_conv_1/convolution/ReadVariableOp", "op": "Const", "attr": {"value": {"tensor": {"dtype": "DT_FLOAT", "tensorShape": {"dim": [{"size": "7"}, {"size": "7"}, {"size": "3"}, {"size": "64"}]}}}, "dtype": {"type": "DT_FLOAT"}}}, {"name": "StatefulPartitionedCall/sequential_1/resnet50_1/conv1_conv_1/Reshape", "op": "Const", "attr": {"dtype": {"type": "DT_FLOAT"}, "value": {"tensor": {"dtype": "DT_FLOAT", "tensorShape": {"dim": [{"size": "1"}, {"size": "1"}, {"size": "1"}, {"size": "64"}]}}}}}, {"name": "StatefulPartitionedCall/sequential_1/resnet50_1/conv1_bn_1/batchnorm/mul", "op": "Const", "attr": {"dtype": {"type": "DT_FLOAT"}, "value": {"tensor": {"dtype": "DT_FLOAT", "tensorShape": {"dim": [{"size": "1"}, {"size": "1"}, {"size": "1"}, {"size": "64"}]}}}}}, {"name": "StatefulPartitionedCall/sequential_1/resnet50_1/conv1_bn_1/batchnorm/sub", "op": "Const", "attr": {"value": {"tensor": {"dtype": "DT_FLOAT", "tensorShape": {"dim": [{"size": "1"}, {"size": "1"}, {"size": "1"}, {"size": "64"}]}}}, "dtype": {"type": "DT_FLOAT"}}}, {"name": "StatefulPartitionedCall/sequential_1/resnet50_1/pool1_pad_1/Const", "op": "Const", "attr": {"dtype": {"type": "DT_INT32"}, "value": {"tensor": {"dtype": "DT_INT32", "tensorShape": {"dim": [{"size": "4"}, {"size": "2"}]}}}}}, {"name": "StatefulPartitionedCall/sequential_1/resnet50_1/conv2_block1_1_conv_1/convolution/merged_input", "op": "Const", "attr": {"value": {"tensor": {"dtype": "DT_FLOAT", "tensorShape": {"dim": [{"size": "1"}, {"size": "1"}, {"size": "64"}, {"size": "64"}]}}}, "dtype": {"type": "DT_FLOAT"}}}, {"name": "StatefulPartitionedCall/sequential_1/resnet50_1/conv2_block1_1_bn_1/batchnorm/sub", "op": "Const", "attr": {"value": {"tensor": {"dtype": "DT_FLOAT", "tensorShape": {"dim": [{"size": "1"}, {"size": "1"}, {"size": "1"}, {"size": "64"}]}}}, "dtype": {"type": "DT_FLOAT"}}}, {"name": "StatefulPartitionedCall/sequential_1/resnet50_1/conv2_block1_2_conv_1/convolution/merged_input", "op": "Const", "attr": {"value": {"tensor": {"dtype": "DT_FLOAT", "tensorShape": {"dim": [{"size": "3"}, {"size": "3"}, {"size": "64"}, {"size": "64"}]}}}, "dtype": {"type": "DT_FLOAT"}}}, {"name": "StatefulPartitionedCall/sequential_1/resnet50_1/conv2_block1_2_bn_1/batchnorm/sub", "op": "Const", "attr": {"value": {"tensor": {"dtype": "DT_FLOAT", "tensorShape": {"dim": [{"size": "1"}, {"size": "1"}, {"size": "1"}, {"size": "64"}]}}}, "dtype": {"type": "DT_FLOAT"}}}, {"name": "StatefulPartitionedCall/sequential_1/resnet50_1/conv2_block1_3_conv_1/convolution/merged_input", "op": "Const", "attr": {"value": {"tensor": {"dtype": "DT_FLOAT", "tensorShape": {"dim": [{"size": "1"}, {"size": "1"}, {"size": "64"}, {"size": "256"}]}}}, "dtype": {"type": "DT_FLOAT"}}}, {"name": "StatefulPartitionedCall/sequential_1/resnet50_1/conv2_block1_3_bn_1/batchnorm/sub", "op": "Const", "attr": {"dtype": {"type": "DT_FLOAT"}, "value": {"tensor": {"dtype": "DT_FLOAT", "tensorShape": {"dim": [{"size": "1"}, {"size": "1"}, {"size": "1"}, {"size": "256"}]}}}}}, {"name": "StatefulPartitionedCall/sequential_1/resnet50_1/conv2_block2_1_conv_1/convolution/merged_input", "op": "Const", "attr": {"value": {"tensor": {"dtype": "DT_FLOAT", "tensorShape": {"dim": [{"size": "1"}, {"size": "1"}, {"size": "256"}, {"size": "64"}]}}}, "dtype": {"type": "DT_FLOAT"}}}, {"name": "StatefulPartitionedCall/sequential_1/resnet50_1/conv2_block2_1_bn_1/batchnorm/sub", "op": "Const", "attr": {"dtype": {"type": "DT_FLOAT"}, "value": {"tensor": {"dtype": "DT_FLOAT", "tensorShape": {"dim": [{"size": "1"}, {"size": "1"}, {"size": "1"}, {"size": "64"}]}}}}}, {"name": "StatefulPartitionedCall/sequential_1/resnet50_1/conv2_block2_2_conv_1/convolution/merged_input", "op": "Const", "attr": {"value": {"tensor": {"dtype": "DT_FLOAT", "tensorShape": {"dim": [{"size": "3"}, {"size": "3"}, {"size": "64"}, {"size": "64"}]}}}, "dtype": {"type": "DT_FLOAT"}}}, {"name": "StatefulPartitionedCall/sequential_1/resnet50_1/conv2_block2_2_bn_1/batchnorm/sub", "op": "Const", "attr": {"value": {"tensor": {"dtype": "DT_FLOAT", "tensorShape": {"dim": [{"size": "1"}, {"size": "1"}, {"size": "1"}, {"size": "64"}]}}}, "dtype": {"type": "DT_FLOAT"}}}, {"name": "StatefulPartitionedCall/sequential_1/resnet50_1/conv2_block2_3_conv_1/convolution/merged_input", "op": "Const", "attr": {"value": {"tensor": {"dtype": "DT_FLOAT", "tensorShape": {"dim": [{"size": "1"}, {"size": "1"}, {"size": "64"}, {"size": "256"}]}}}, "dtype": {"type": "DT_FLOAT"}}}, {"name": "StatefulPartitionedCall/sequential_1/resnet50_1/conv2_block2_3_bn_1/batchnorm/sub", "op": "Const", "attr": {"value": {"tensor": {"dtype": "DT_FLOAT", "tensorShape": {"dim": [{"size": "1"}, {"size": "1"}, {"size": "1"}, {"size": "256"}]}}}, "dtype": {"type": "DT_FLOAT"}}}, {"name": "StatefulPartitionedCall/sequential_1/resnet50_1/conv2_block3_1_conv_1/convolution/merged_input", "op": "Const", "attr": {"dtype": {"type": "DT_FLOAT"}, "value": {"tensor": {"dtype": "DT_FLOAT", "tensorShape": {"dim": [{"size": "1"}, {"size": "1"}, {"size": "256"}, {"size": "64"}]}}}}}, {"name": "StatefulPartitionedCall/sequential_1/resnet50_1/conv2_block3_1_bn_1/batchnorm/sub", "op": "Const", "attr": {"value": {"tensor": {"dtype": "DT_FLOAT", "tensorShape": {"dim": [{"size": "1"}, {"size": "1"}, {"size": "1"}, {"size": "64"}]}}}, "dtype": {"type": "DT_FLOAT"}}}, {"name": "StatefulPartitionedCall/sequential_1/resnet50_1/conv2_block3_2_conv_1/convolution/merged_input", "op": "Const", "attr": {"value": {"tensor": {"dtype": "DT_FLOAT", "tensorShape": {"dim": [{"size": "3"}, {"size": "3"}, {"size": "64"}, {"size": "64"}]}}}, "dtype": {"type": "DT_FLOAT"}}}, {"name": "StatefulPartitionedCall/sequential_1/resnet50_1/conv2_block3_2_bn_1/batchnorm/sub", "op": "Const", "attr": {"dtype": {"type": "DT_FLOAT"}, "value": {"tensor": {"dtype": "DT_FLOAT", "tensorShape": {"dim": [{"size": "1"}, {"size": "1"}, {"size": "1"}, {"size": "64"}]}}}}}, {"name": "StatefulPartitionedCall/sequential_1/resnet50_1/conv2_block3_3_conv_1/convolution/merged_input", "op": "Const", "attr": {"value": {"tensor": {"dtype": "DT_FLOAT", "tensorShape": {"dim": [{"size": "1"}, {"size": "1"}, {"size": "64"}, {"size": "256"}]}}}, "dtype": {"type": "DT_FLOAT"}}}, {"name": "StatefulPartitionedCall/sequential_1/resnet50_1/conv2_block3_3_bn_1/batchnorm/sub", "op": "Const", "attr": {"value": {"tensor": {"dtype": "DT_FLOAT", "tensorShape": {"dim": [{"size": "1"}, {"size": "1"}, {"size": "1"}, {"size": "256"}]}}}, "dtype": {"type": "DT_FLOAT"}}}, {"name": "StatefulPartitionedCall/sequential_1/resnet50_1/conv3_block1_1_conv_1/convolution/merged_input", "op": "Const", "attr": {"dtype": {"type": "DT_FLOAT"}, "value": {"tensor": {"dtype": "DT_FLOAT", "tensorShape": {"dim": [{"size": "1"}, {"size": "1"}, {"size": "256"}, {"size": "128"}]}}}}}, {"name": "StatefulPartitionedCall/sequential_1/resnet50_1/conv3_block1_1_bn_1/batchnorm/sub", "op": "Const", "attr": {"dtype": {"type": "DT_FLOAT"}, "value": {"tensor": {"dtype": "DT_FLOAT", "tensorShape": {"dim": [{"size": "1"}, {"size": "1"}, {"size": "1"}, {"size": "128"}]}}}}}, {"name": "StatefulPartitionedCall/sequential_1/resnet50_1/conv3_block1_2_conv_1/convolution/merged_input", "op": "Const", "attr": {"dtype": {"type": "DT_FLOAT"}, "value": {"tensor": {"dtype": "DT_FLOAT", "tensorShape": {"dim": [{"size": "3"}, {"size": "3"}, {"size": "128"}, {"size": "128"}]}}}}}, {"name": "StatefulPartitionedCall/sequential_1/resnet50_1/conv3_block1_2_bn_1/batchnorm/sub", "op": "Const", "attr": {"value": {"tensor": {"dtype": "DT_FLOAT", "tensorShape": {"dim": [{"size": "1"}, {"size": "1"}, {"size": "1"}, {"size": "128"}]}}}, "dtype": {"type": "DT_FLOAT"}}}, {"name": "StatefulPartitionedCall/sequential_1/resnet50_1/conv3_block1_3_conv_1/convolution/merged_input", "op": "Const", "attr": {"value": {"tensor": {"dtype": "DT_FLOAT", "tensorShape": {"dim": [{"size": "1"}, {"size": "1"}, {"size": "128"}, {"size": "512"}]}}}, "dtype": {"type": "DT_FLOAT"}}}, {"name": "StatefulPartitionedCall/sequential_1/resnet50_1/conv3_block1_3_bn_1/batchnorm/sub", "op": "Const", "attr": {"dtype": {"type": "DT_FLOAT"}, "value": {"tensor": {"dtype": "DT_FLOAT", "tensorShape": {"dim": [{"size": "1"}, {"size": "1"}, {"size": "1"}, {"size": "512"}]}}}}}, {"name": "StatefulPartitionedCall/sequential_1/resnet50_1/conv3_block2_1_conv_1/convolution/merged_input", "op": "Const", "attr": {"value": {"tensor": {"dtype": "DT_FLOAT", "tensorShape": {"dim": [{"size": "1"}, {"size": "1"}, {"size": "512"}, {"size": "128"}]}}}, "dtype": {"type": "DT_FLOAT"}}}, {"name": "StatefulPartitionedCall/sequential_1/resnet50_1/conv3_block2_1_bn_1/batchnorm/sub", "op": "Const", "attr": {"value": {"tensor": {"dtype": "DT_FLOAT", "tensorShape": {"dim": [{"size": "1"}, {"size": "1"}, {"size": "1"}, {"size": "128"}]}}}, "dtype": {"type": "DT_FLOAT"}}}, {"name": "StatefulPartitionedCall/sequential_1/resnet50_1/conv3_block2_2_conv_1/convolution/merged_input", "op": "Const", "attr": {"dtype": {"type": "DT_FLOAT"}, "value": {"tensor": {"dtype": "DT_FLOAT", "tensorShape": {"dim": [{"size": "3"}, {"size": "3"}, {"size": "128"}, {"size": "128"}]}}}}}, {"name": "StatefulPartitionedCall/sequential_1/resnet50_1/conv3_block2_2_bn_1/batchnorm/sub", "op": "Const", "attr": {"dtype": {"type": "DT_FLOAT"}, "value": {"tensor": {"dtype": "DT_FLOAT", "tensorShape": {"dim": [{"size": "1"}, {"size": "1"}, {"size": "1"}, {"size": "128"}]}}}}}, {"name": "StatefulPartitionedCall/sequential_1/resnet50_1/conv3_block2_3_conv_1/convolution/merged_input", "op": "Const", "attr": {"value": {"tensor": {"dtype": "DT_FLOAT", "tensorShape": {"dim": [{"size": "1"}, {"size": "1"}, {"size": "128"}, {"size": "512"}]}}}, "dtype": {"type": "DT_FLOAT"}}}, {"name": "StatefulPartitionedCall/sequential_1/resnet50_1/conv3_block2_3_bn_1/batchnorm/sub", "op": "Const", "attr": {"value": {"tensor": {"dtype": "DT_FLOAT", "tensorShape": {"dim": [{"size": "1"}, {"size": "1"}, {"size": "1"}, {"size": "512"}]}}}, "dtype": {"type": "DT_FLOAT"}}}, {"name": "StatefulPartitionedCall/sequential_1/resnet50_1/conv3_block3_1_conv_1/convolution/merged_input", "op": "Const", "attr": {"dtype": {"type": "DT_FLOAT"}, "value": {"tensor": {"dtype": "DT_FLOAT", "tensorShape": {"dim": [{"size": "1"}, {"size": "1"}, {"size": "512"}, {"size": "128"}]}}}}}, {"name": "StatefulPartitionedCall/sequential_1/resnet50_1/conv3_block3_1_bn_1/batchnorm/sub", "op": "Const", "attr": {"dtype": {"type": "DT_FLOAT"}, "value": {"tensor": {"dtype": "DT_FLOAT", "tensorShape": {"dim": [{"size": "1"}, {"size": "1"}, {"size": "1"}, {"size": "128"}]}}}}}, {"name": "StatefulPartitionedCall/sequential_1/resnet50_1/conv3_block3_2_conv_1/convolution/merged_input", "op": "Const", "attr": {"value": {"tensor": {"dtype": "DT_FLOAT", "tensorShape": {"dim": [{"size": "3"}, {"size": "3"}, {"size": "128"}, {"size": "128"}]}}}, "dtype": {"type": "DT_FLOAT"}}}, {"name": "StatefulPartitionedCall/sequential_1/resnet50_1/conv3_block3_2_bn_1/batchnorm/sub", "op": "Const", "attr": {"value": {"tensor": {"dtype": "DT_FLOAT", "tensorShape": {"dim": [{"size": "1"}, {"size": "1"}, {"size": "1"}, {"size": "128"}]}}}, "dtype": {"type": "DT_FLOAT"}}}, {"name": "StatefulPartitionedCall/sequential_1/resnet50_1/conv3_block3_3_conv_1/convolution/merged_input", "op": "Const", "attr": {"value": {"tensor": {"dtype": "DT_FLOAT", "tensorShape": {"dim": [{"size": "1"}, {"size": "1"}, {"size": "128"}, {"size": "512"}]}}}, "dtype": {"type": "DT_FLOAT"}}}, {"name": "StatefulPartitionedCall/sequential_1/resnet50_1/conv3_block3_3_bn_1/batchnorm/sub", "op": "Const", "attr": {"dtype": {"type": "DT_FLOAT"}, "value": {"tensor": {"dtype": "DT_FLOAT", "tensorShape": {"dim": [{"size": "1"}, {"size": "1"}, {"size": "1"}, {"size": "512"}]}}}}}, {"name": "StatefulPartitionedCall/sequential_1/resnet50_1/conv3_block4_1_conv_1/convolution/merged_input", "op": "Const", "attr": {"dtype": {"type": "DT_FLOAT"}, "value": {"tensor": {"dtype": "DT_FLOAT", "tensorShape": {"dim": [{"size": "1"}, {"size": "1"}, {"size": "512"}, {"size": "128"}]}}}}}, {"name": "StatefulPartitionedCall/sequential_1/resnet50_1/conv3_block4_1_bn_1/batchnorm/sub", "op": "Const", "attr": {"value": {"tensor": {"dtype": "DT_FLOAT", "tensorShape": {"dim": [{"size": "1"}, {"size": "1"}, {"size": "1"}, {"size": "128"}]}}}, "dtype": {"type": "DT_FLOAT"}}}, {"name": "StatefulPartitionedCall/sequential_1/resnet50_1/conv3_block4_2_conv_1/convolution/merged_input", "op": "Const", "attr": {"value": {"tensor": {"dtype": "DT_FLOAT", "tensorShape": {"dim": [{"size": "3"}, {"size": "3"}, {"size": "128"}, {"size": "128"}]}}}, "dtype": {"type": "DT_FLOAT"}}}, {"name": "StatefulPartitionedCall/sequential_1/resnet50_1/conv3_block4_2_bn_1/batchnorm/sub", "op": "Const", "attr": {"dtype": {"type": "DT_FLOAT"}, "value": {"tensor": {"dtype": "DT_FLOAT", "tensorShape": {"dim": [{"size": "1"}, {"size": "1"}, {"size": "1"}, {"size": "128"}]}}}}}, {"name": "StatefulPartitionedCall/sequential_1/resnet50_1/conv3_block4_3_conv_1/convolution/merged_input", "op": "Const", "attr": {"dtype": {"type": "DT_FLOAT"}, "value": {"tensor": {"dtype": "DT_FLOAT", "tensorShape": {"dim": [{"size": "1"}, {"size": "1"}, {"size": "128"}, {"size": "512"}]}}}}}, {"name": "StatefulPartitionedCall/sequential_1/resnet50_1/conv3_block4_3_bn_1/batchnorm/sub", "op": "Const", "attr": {"dtype": {"type": "DT_FLOAT"}, "value": {"tensor": {"dtype": "DT_FLOAT", "tensorShape": {"dim": [{"size": "1"}, {"size": "1"}, {"size": "1"}, {"size": "512"}]}}}}}, {"name": "StatefulPartitionedCall/sequential_1/resnet50_1/conv4_block1_1_conv_1/convolution/merged_input", "op": "Const", "attr": {"value": {"tensor": {"dtype": "DT_FLOAT", "tensorShape": {"dim": [{"size": "1"}, {"size": "1"}, {"size": "512"}, {"size": "256"}]}}}, "dtype": {"type": "DT_FLOAT"}}}, {"name": "StatefulPartitionedCall/sequential_1/resnet50_1/conv4_block1_1_bn_1/batchnorm/sub", "op": "Const", "attr": {"dtype": {"type": "DT_FLOAT"}, "value": {"tensor": {"dtype": "DT_FLOAT", "tensorShape": {"dim": [{"size": "1"}, {"size": "1"}, {"size": "1"}, {"size": "256"}]}}}}}, {"name": "StatefulPartitionedCall/sequential_1/resnet50_1/conv4_block1_2_conv_1/convolution/merged_input", "op": "Const", "attr": {"dtype": {"type": "DT_FLOAT"}, "value": {"tensor": {"dtype": "DT_FLOAT", "tensorShape": {"dim": [{"size": "3"}, {"size": "3"}, {"size": "256"}, {"size": "256"}]}}}}}, {"name": "StatefulPartitionedCall/sequential_1/resnet50_1/conv4_block1_2_bn_1/batchnorm/sub", "op": "Const", "attr": {"value": {"tensor": {"dtype": "DT_FLOAT", "tensorShape": {"dim": [{"size": "1"}, {"size": "1"}, {"size": "1"}, {"size": "256"}]}}}, "dtype": {"type": "DT_FLOAT"}}}, {"name": "StatefulPartitionedCall/sequential_1/resnet50_1/conv4_block1_3_conv_1/convolution/merged_input", "op": "Const", "attr": {"value": {"tensor": {"dtype": "DT_FLOAT", "tensorShape": {"dim": [{"size": "1"}, {"size": "1"}, {"size": "256"}, {"size": "1024"}]}}}, "dtype": {"type": "DT_FLOAT"}}}, {"name": "StatefulPartitionedCall/sequential_1/resnet50_1/conv4_block1_3_bn_1/batchnorm/sub", "op": "Const", "attr": {"dtype": {"type": "DT_FLOAT"}, "value": {"tensor": {"dtype": "DT_FLOAT", "tensorShape": {"dim": [{"size": "1"}, {"size": "1"}, {"size": "1"}, {"size": "1024"}]}}}}}, {"name": "StatefulPartitionedCall/sequential_1/resnet50_1/conv4_block2_1_conv_1/convolution/merged_input", "op": "Const", "attr": {"value": {"tensor": {"dtype": "DT_FLOAT", "tensorShape": {"dim": [{"size": "1"}, {"size": "1"}, {"size": "1024"}, {"size": "256"}]}}}, "dtype": {"type": "DT_FLOAT"}}}, {"name": "StatefulPartitionedCall/sequential_1/resnet50_1/conv4_block2_1_bn_1/batchnorm/sub", "op": "Const", "attr": {"dtype": {"type": "DT_FLOAT"}, "value": {"tensor": {"dtype": "DT_FLOAT", "tensorShape": {"dim": [{"size": "1"}, {"size": "1"}, {"size": "1"}, {"size": "256"}]}}}}}, {"name": "StatefulPartitionedCall/sequential_1/resnet50_1/conv4_block2_2_conv_1/convolution/merged_input", "op": "Const", "attr": {"dtype": {"type": "DT_FLOAT"}, "value": {"tensor": {"dtype": "DT_FLOAT", "tensorShape": {"dim": [{"size": "3"}, {"size": "3"}, {"size": "256"}, {"size": "256"}]}}}}}, {"name": "StatefulPartitionedCall/sequential_1/resnet50_1/conv4_block2_2_bn_1/batchnorm/sub", "op": "Const", "attr": {"value": {"tensor": {"dtype": "DT_FLOAT", "tensorShape": {"dim": [{"size": "1"}, {"size": "1"}, {"size": "1"}, {"size": "256"}]}}}, "dtype": {"type": "DT_FLOAT"}}}, {"name": "StatefulPartitionedCall/sequential_1/resnet50_1/conv4_block2_3_conv_1/convolution/merged_input", "op": "Const", "attr": {"value": {"tensor": {"dtype": "DT_FLOAT", "tensorShape": {"dim": [{"size": "1"}, {"size": "1"}, {"size": "256"}, {"size": "1024"}]}}}, "dtype": {"type": "DT_FLOAT"}}}, {"name": "StatefulPartitionedCall/sequential_1/resnet50_1/conv4_block2_3_bn_1/batchnorm/sub", "op": "Const", "attr": {"dtype": {"type": "DT_FLOAT"}, "value": {"tensor": {"dtype": "DT_FLOAT", "tensorShape": {"dim": [{"size": "1"}, {"size": "1"}, {"size": "1"}, {"size": "1024"}]}}}}}, {"name": "StatefulPartitionedCall/sequential_1/resnet50_1/conv4_block3_1_conv_1/convolution/merged_input", "op": "Const", "attr": {"value": {"tensor": {"dtype": "DT_FLOAT", "tensorShape": {"dim": [{"size": "1"}, {"size": "1"}, {"size": "1024"}, {"size": "256"}]}}}, "dtype": {"type": "DT_FLOAT"}}}, {"name": "StatefulPartitionedCall/sequential_1/resnet50_1/conv4_block3_1_bn_1/batchnorm/sub", "op": "Const", "attr": {"value": {"tensor": {"dtype": "DT_FLOAT", "tensorShape": {"dim": [{"size": "1"}, {"size": "1"}, {"size": "1"}, {"size": "256"}]}}}, "dtype": {"type": "DT_FLOAT"}}}, {"name": "StatefulPartitionedCall/sequential_1/resnet50_1/conv4_block3_2_conv_1/convolution/merged_input", "op": "Const", "attr": {"value": {"tensor": {"dtype": "DT_FLOAT", "tensorShape": {"dim": [{"size": "3"}, {"size": "3"}, {"size": "256"}, {"size": "256"}]}}}, "dtype": {"type": "DT_FLOAT"}}}, {"name": "StatefulPartitionedCall/sequential_1/resnet50_1/conv4_block3_2_bn_1/batchnorm/sub", "op": "Const", "attr": {"dtype": {"type": "DT_FLOAT"}, "value": {"tensor": {"dtype": "DT_FLOAT", "tensorShape": {"dim": [{"size": "1"}, {"size": "1"}, {"size": "1"}, {"size": "256"}]}}}}}, {"name": "StatefulPartitionedCall/sequential_1/resnet50_1/conv4_block3_3_conv_1/convolution/merged_input", "op": "Const", "attr": {"dtype": {"type": "DT_FLOAT"}, "value": {"tensor": {"dtype": "DT_FLOAT", "tensorShape": {"dim": [{"size": "1"}, {"size": "1"}, {"size": "256"}, {"size": "1024"}]}}}}}, {"name": "StatefulPartitionedCall/sequential_1/resnet50_1/conv4_block3_3_bn_1/batchnorm/sub", "op": "Const", "attr": {"dtype": {"type": "DT_FLOAT"}, "value": {"tensor": {"dtype": "DT_FLOAT", "tensorShape": {"dim": [{"size": "1"}, {"size": "1"}, {"size": "1"}, {"size": "1024"}]}}}}}, {"name": "StatefulPartitionedCall/sequential_1/resnet50_1/conv4_block4_1_conv_1/convolution/merged_input", "op": "Const", "attr": {"value": {"tensor": {"dtype": "DT_FLOAT", "tensorShape": {"dim": [{"size": "1"}, {"size": "1"}, {"size": "1024"}, {"size": "256"}]}}}, "dtype": {"type": "DT_FLOAT"}}}, {"name": "StatefulPartitionedCall/sequential_1/resnet50_1/conv4_block4_1_bn_1/batchnorm/sub", "op": "Const", "attr": {"value": {"tensor": {"dtype": "DT_FLOAT", "tensorShape": {"dim": [{"size": "1"}, {"size": "1"}, {"size": "1"}, {"size": "256"}]}}}, "dtype": {"type": "DT_FLOAT"}}}, {"name": "StatefulPartitionedCall/sequential_1/resnet50_1/conv4_block4_2_conv_1/convolution/merged_input", "op": "Const", "attr": {"dtype": {"type": "DT_FLOAT"}, "value": {"tensor": {"dtype": "DT_FLOAT", "tensorShape": {"dim": [{"size": "3"}, {"size": "3"}, {"size": "256"}, {"size": "256"}]}}}}}, {"name": "StatefulPartitionedCall/sequential_1/resnet50_1/conv4_block4_2_bn_1/batchnorm/sub", "op": "Const", "attr": {"dtype": {"type": "DT_FLOAT"}, "value": {"tensor": {"dtype": "DT_FLOAT", "tensorShape": {"dim": [{"size": "1"}, {"size": "1"}, {"size": "1"}, {"size": "256"}]}}}}}, {"name": "StatefulPartitionedCall/sequential_1/resnet50_1/conv4_block4_3_conv_1/convolution/merged_input", "op": "Const", "attr": {"dtype": {"type": "DT_FLOAT"}, "value": {"tensor": {"dtype": "DT_FLOAT", "tensorShape": {"dim": [{"size": "1"}, {"size": "1"}, {"size": "256"}, {"size": "1024"}]}}}}}, {"name": "StatefulPartitionedCall/sequential_1/resnet50_1/conv4_block4_3_bn_1/batchnorm/sub", "op": "Const", "attr": {"value": {"tensor": {"dtype": "DT_FLOAT", "tensorShape": {"dim": [{"size": "1"}, {"size": "1"}, {"size": "1"}, {"size": "1024"}]}}}, "dtype": {"type": "DT_FLOAT"}}}, {"name": "StatefulPartitionedCall/sequential_1/resnet50_1/conv4_block5_1_conv_1/convolution/merged_input", "op": "Const", "attr": {"value": {"tensor": {"dtype": "DT_FLOAT", "tensorShape": {"dim": [{"size": "1"}, {"size": "1"}, {"size": "1024"}, {"size": "256"}]}}}, "dtype": {"type": "DT_FLOAT"}}}, {"name": "StatefulPartitionedCall/sequential_1/resnet50_1/conv4_block5_1_bn_1/batchnorm/sub", "op": "Const", "attr": {"dtype": {"type": "DT_FLOAT"}, "value": {"tensor": {"dtype": "DT_FLOAT", "tensorShape": {"dim": [{"size": "1"}, {"size": "1"}, {"size": "1"}, {"size": "256"}]}}}}}, {"name": "StatefulPartitionedCall/sequential_1/resnet50_1/conv4_block5_2_conv_1/convolution/merged_input", "op": "Const", "attr": {"dtype": {"type": "DT_FLOAT"}, "value": {"tensor": {"dtype": "DT_FLOAT", "tensorShape": {"dim": [{"size": "3"}, {"size": "3"}, {"size": "256"}, {"size": "256"}]}}}}}, {"name": "StatefulPartitionedCall/sequential_1/resnet50_1/conv4_block5_2_bn_1/batchnorm/sub", "op": "Const", "attr": {"value": {"tensor": {"dtype": "DT_FLOAT", "tensorShape": {"dim": [{"size": "1"}, {"size": "1"}, {"size": "1"}, {"size": "256"}]}}}, "dtype": {"type": "DT_FLOAT"}}}, {"name": "StatefulPartitionedCall/sequential_1/resnet50_1/conv4_block5_3_conv_1/convolution/merged_input", "op": "Const", "attr": {"value": {"tensor": {"dtype": "DT_FLOAT", "tensorShape": {"dim": [{"size": "1"}, {"size": "1"}, {"size": "256"}, {"size": "1024"}]}}}, "dtype": {"type": "DT_FLOAT"}}}, {"name": "StatefulPartitionedCall/sequential_1/resnet50_1/conv4_block5_3_bn_1/batchnorm/sub", "op": "Const", "attr": {"dtype": {"type": "DT_FLOAT"}, "value": {"tensor": {"dtype": "DT_FLOAT", "tensorShape": {"dim": [{"size": "1"}, {"size": "1"}, {"size": "1"}, {"size": "1024"}]}}}}}, {"name": "StatefulPartitionedCall/sequential_1/resnet50_1/conv4_block6_1_conv_1/convolution/merged_input", "op": "Const", "attr": {"dtype": {"type": "DT_FLOAT"}, "value": {"tensor": {"dtype": "DT_FLOAT", "tensorShape": {"dim": [{"size": "1"}, {"size": "1"}, {"size": "1024"}, {"size": "256"}]}}}}}, {"name": "StatefulPartitionedCall/sequential_1/resnet50_1/conv4_block6_1_bn_1/batchnorm/sub", "op": "Const", "attr": {"dtype": {"type": "DT_FLOAT"}, "value": {"tensor": {"dtype": "DT_FLOAT", "tensorShape": {"dim": [{"size": "1"}, {"size": "1"}, {"size": "1"}, {"size": "256"}]}}}}}, {"name": "StatefulPartitionedCall/sequential_1/resnet50_1/conv4_block6_2_conv_1/convolution/merged_input", "op": "Const", "attr": {"dtype": {"type": "DT_FLOAT"}, "value": {"tensor": {"dtype": "DT_FLOAT", "tensorShape": {"dim": [{"size": "3"}, {"size": "3"}, {"size": "256"}, {"size": "256"}]}}}}}, {"name": "StatefulPartitionedCall/sequential_1/resnet50_1/conv4_block6_2_bn_1/batchnorm/sub", "op": "Const", "attr": {"dtype": {"type": "DT_FLOAT"}, "value": {"tensor": {"dtype": "DT_FLOAT", "tensorShape": {"dim": [{"size": "1"}, {"size": "1"}, {"size": "1"}, {"size": "256"}]}}}}}, {"name": "StatefulPartitionedCall/sequential_1/resnet50_1/conv4_block6_3_conv_1/convolution/merged_input", "op": "Const", "attr": {"value": {"tensor": {"dtype": "DT_FLOAT", "tensorShape": {"dim": [{"size": "1"}, {"size": "1"}, {"size": "256"}, {"size": "1024"}]}}}, "dtype": {"type": "DT_FLOAT"}}}, {"name": "StatefulPartitionedCall/sequential_1/resnet50_1/conv4_block6_3_bn_1/batchnorm/sub", "op": "Const", "attr": {"value": {"tensor": {"dtype": "DT_FLOAT", "tensorShape": {"dim": [{"size": "1"}, {"size": "1"}, {"size": "1"}, {"size": "1024"}]}}}, "dtype": {"type": "DT_FLOAT"}}}, {"name": "StatefulPartitionedCall/sequential_1/resnet50_1/conv5_block1_1_conv_1/convolution/merged_input", "op": "Const", "attr": {"value": {"tensor": {"dtype": "DT_FLOAT", "tensorShape": {"dim": [{"size": "1"}, {"size": "1"}, {"size": "1024"}, {"size": "512"}]}}}, "dtype": {"type": "DT_FLOAT"}}}, {"name": "StatefulPartitionedCall/sequential_1/resnet50_1/conv5_block1_1_bn_1/batchnorm/sub", "op": "Const", "attr": {"dtype": {"type": "DT_FLOAT"}, "value": {"tensor": {"dtype": "DT_FLOAT", "tensorShape": {"dim": [{"size": "1"}, {"size": "1"}, {"size": "1"}, {"size": "512"}]}}}}}, {"name": "StatefulPartitionedCall/sequential_1/resnet50_1/conv5_block1_2_conv_1/convolution/merged_input", "op": "Const", "attr": {"dtype": {"type": "DT_FLOAT"}, "value": {"tensor": {"dtype": "DT_FLOAT", "tensorShape": {"dim": [{"size": "3"}, {"size": "3"}, {"size": "512"}, {"size": "512"}]}}}}}, {"name": "StatefulPartitionedCall/sequential_1/resnet50_1/conv5_block1_2_bn_1/batchnorm/sub", "op": "Const", "attr": {"value": {"tensor": {"dtype": "DT_FLOAT", "tensorShape": {"dim": [{"size": "1"}, {"size": "1"}, {"size": "1"}, {"size": "512"}]}}}, "dtype": {"type": "DT_FLOAT"}}}, {"name": "StatefulPartitionedCall/sequential_1/resnet50_1/conv5_block1_3_conv_1/convolution/merged_input", "op": "Const", "attr": {"value": {"tensor": {"dtype": "DT_FLOAT", "tensorShape": {"dim": [{"size": "1"}, {"size": "1"}, {"size": "512"}, {"size": "2048"}]}}}, "dtype": {"type": "DT_FLOAT"}}}, {"name": "StatefulPartitionedCall/sequential_1/resnet50_1/conv5_block1_3_bn_1/batchnorm/sub", "op": "Const", "attr": {"dtype": {"type": "DT_FLOAT"}, "value": {"tensor": {"dtype": "DT_FLOAT", "tensorShape": {"dim": [{"size": "1"}, {"size": "1"}, {"size": "1"}, {"size": "2048"}]}}}}}, {"name": "StatefulPartitionedCall/sequential_1/resnet50_1/conv5_block2_1_conv_1/convolution/merged_input", "op": "Const", "attr": {"value": {"tensor": {"dtype": "DT_FLOAT", "tensorShape": {"dim": [{"size": "1"}, {"size": "1"}, {"size": "2048"}, {"size": "512"}]}}}, "dtype": {"type": "DT_FLOAT"}}}, {"name": "StatefulPartitionedCall/sequential_1/resnet50_1/conv5_block2_1_bn_1/batchnorm/sub", "op": "Const", "attr": {"value": {"tensor": {"dtype": "DT_FLOAT", "tensorShape": {"dim": [{"size": "1"}, {"size": "1"}, {"size": "1"}, {"size": "512"}]}}}, "dtype": {"type": "DT_FLOAT"}}}, {"name": "StatefulPartitionedCall/sequential_1/resnet50_1/conv5_block2_2_conv_1/convolution/merged_input", "op": "Const", "attr": {"value": {"tensor": {"dtype": "DT_FLOAT", "tensorShape": {"dim": [{"size": "3"}, {"size": "3"}, {"size": "512"}, {"size": "512"}]}}}, "dtype": {"type": "DT_FLOAT"}}}, {"name": "StatefulPartitionedCall/sequential_1/resnet50_1/conv5_block2_2_bn_1/batchnorm/sub", "op": "Const", "attr": {"value": {"tensor": {"dtype": "DT_FLOAT", "tensorShape": {"dim": [{"size": "1"}, {"size": "1"}, {"size": "1"}, {"size": "512"}]}}}, "dtype": {"type": "DT_FLOAT"}}}, {"name": "StatefulPartitionedCall/sequential_1/resnet50_1/conv5_block2_3_conv_1/convolution/merged_input", "op": "Const", "attr": {"value": {"tensor": {"dtype": "DT_FLOAT", "tensorShape": {"dim": [{"size": "1"}, {"size": "1"}, {"size": "512"}, {"size": "2048"}]}}}, "dtype": {"type": "DT_FLOAT"}}}, {"name": "StatefulPartitionedCall/sequential_1/resnet50_1/conv5_block2_3_bn_1/batchnorm/sub", "op": "Const", "attr": {"dtype": {"type": "DT_FLOAT"}, "value": {"tensor": {"dtype": "DT_FLOAT", "tensorShape": {"dim": [{"size": "1"}, {"size": "1"}, {"size": "1"}, {"size": "2048"}]}}}}}, {"name": "StatefulPartitionedCall/sequential_1/resnet50_1/conv5_block3_1_conv_1/convolution/merged_input", "op": "Const", "attr": {"dtype": {"type": "DT_FLOAT"}, "value": {"tensor": {"dtype": "DT_FLOAT", "tensorShape": {"dim": [{"size": "1"}, {"size": "1"}, {"size": "2048"}, {"size": "512"}]}}}}}, {"name": "StatefulPartitionedCall/sequential_1/resnet50_1/conv5_block3_1_bn_1/batchnorm/sub", "op": "Const", "attr": {"dtype": {"type": "DT_FLOAT"}, "value": {"tensor": {"dtype": "DT_FLOAT", "tensorShape": {"dim": [{"size": "1"}, {"size": "1"}, {"size": "1"}, {"size": "512"}]}}}}}, {"name": "StatefulPartitionedCall/sequential_1/resnet50_1/conv5_block3_2_conv_1/convolution/merged_input", "op": "Const", "attr": {"dtype": {"type": "DT_FLOAT"}, "value": {"tensor": {"dtype": "DT_FLOAT", "tensorShape": {"dim": [{"size": "3"}, {"size": "3"}, {"size": "512"}, {"size": "512"}]}}}}}, {"name": "StatefulPartitionedCall/sequential_1/resnet50_1/conv5_block3_2_bn_1/batchnorm/sub", "op": "Const", "attr": {"dtype": {"type": "DT_FLOAT"}, "value": {"tensor": {"dtype": "DT_FLOAT", "tensorShape": {"dim": [{"size": "1"}, {"size": "1"}, {"size": "1"}, {"size": "512"}]}}}}}, {"name": "StatefulPartitionedCall/sequential_1/resnet50_1/conv5_block3_3_conv_1/convolution/merged_input", "op": "Const", "attr": {"value": {"tensor": {"dtype": "DT_FLOAT", "tensorShape": {"dim": [{"size": "1"}, {"size": "1"}, {"size": "512"}, {"size": "2048"}]}}}, "dtype": {"type": "DT_FLOAT"}}}, {"name": "StatefulPartitionedCall/sequential_1/resnet50_1/conv5_block3_3_bn_1/batchnorm/sub", "op": "Const", "attr": {"value": {"tensor": {"dtype": "DT_FLOAT", "tensorShape": {"dim": [{"size": "1"}, {"size": "1"}, {"size": "1"}, {"size": "2048"}]}}}, "dtype": {"type": "DT_FLOAT"}}}, {"name": "StatefulPartitionedCall/sequential_1/resnet50_1/avg_pool_1/Mean/reduction_indices", "op": "Const", "attr": {"dtype": {"type": "DT_INT32"}, "value": {"tensor": {"dtype": "DT_INT32", "tensorShape": {"dim": [{"size": "2"}]}}}}}, {"name": "StatefulPartitionedCall/sequential_1/dense_1/Cast/ReadVariableOp", "op": "Const", "attr": {"dtype": {"type": "DT_FLOAT"}, "value": {"tensor": {"dtype": "DT_FLOAT", "tensorShape": {"dim": [{"size": "2048"}, {"size": "512"}]}}}}}, {"name": "StatefulPartitionedCall/sequential_1/dense_1/Add/ReadVariableOp", "op": "Const", "attr": {"value": {"tensor": {"dtype": "DT_FLOAT", "tensorShape": {"dim": [{"size": "512"}]}}}, "dtype": {"type": "DT_FLOAT"}}}, {"name": "StatefulPartitionedCall/sequential_1/dense_1_2/Cast/ReadVariableOp", "op": "Const", "attr": {"dtype": {"type": "DT_FLOAT"}, "value": {"tensor": {"dtype": "DT_FLOAT", "tensorShape": {"dim": [{"size": "512"}, {"size": "2"}]}}}}}, {"name": "StatefulPartitionedCall/sequential_1/dense_1_2/Add/ReadVariableOp", "op": "Const", "attr": {"value": {"tensor": {"dtype": "DT_FLOAT", "tensorShape": {"dim": [{"size": "2"}]}}}, "dtype": {"type": "DT_FLOAT"}}}, {"name": "inputs", "op": "Placeholder", "attr": {"dtype": {"type": "DT_FLOAT"}, "shape": {"shape": {"dim": [{"size": "-1"}, {"size": "300"}, {"size": "300"}, {"size": "3"}]}}}}, {"name": "StatefulPartitionedCall/sequential_1/resnet50_1/conv1_pad_1/Pad", "op": "Pad", "input": ["inputs", "StatefulPartitionedCall/sequential_1/resnet50_1/conv1_pad_1/Const"], "attr": {"Tpaddings": {"type": "DT_INT32"}, "T": {"type": "DT_FLOAT"}}}, {"name": "StatefulPartitionedCall/sequential_1/resnet50_1/conv1_conv_1/add", "op": "_FusedConv2D", "input": ["StatefulPartitionedCall/sequential_1/resnet50_1/conv1_pad_1/Pad", "StatefulPartitionedCall/sequential_1/resnet50_1/conv1_conv_1/convolution/ReadVariableOp", "StatefulPartitionedCall/sequential_1/resnet50_1/conv1_conv_1/Reshape"], "device": "/device:CPU:0", "attr": {"data_format": {"s": "TkhXQw=="}, "strides": {"list": {"i": ["1", "2", "2", "1"]}}, "num_host_args": {"i": "0"}, "explicit_paddings": {"list": {}}, "T": {"type": "DT_FLOAT"}, "epsilon": {"f": 0.0}, "use_cudnn_on_gpu": {"b": true}, "dilations": {"list": {"i": ["1", "1", "1", "1"]}}, "filter_format": {"s": "SFdJTw=="}, "TArgs": {"list": {"type": ["DT_FLOAT"]}}, "fused_ops": {"list": {"s": ["Qmlhc0FkZA=="]}}, "padding": {"s": "VkFMSUQ="}, "leakyrelu_alpha": {"f": 0.2}, "num_args": {"i": "1"}}}, {"name": "StatefulPartitionedCall/sequential_1/resnet50_1/conv1_bn_1/batchnorm/mul_1", "op": "Mul", "input": ["StatefulPartitionedCall/sequential_1/resnet50_1/conv1_conv_1/add", "StatefulPartitionedCall/sequential_1/resnet50_1/conv1_bn_1/batchnorm/mul"], "attr": {"T": {"type": "DT_FLOAT"}}}, {"name": "StatefulPartitionedCall/sequential_1/resnet50_1/conv1_bn_1/batchnorm/add_1", "op": "AddV2", "input": ["StatefulPartitionedCall/sequential_1/resnet50_1/conv1_bn_1/batchnorm/mul_1", "StatefulPartitionedCall/sequential_1/resnet50_1/conv1_bn_1/batchnorm/sub"], "attr": {"T": {"type": "DT_FLOAT"}}}, {"name": "StatefulPartitionedCall/sequential_1/resnet50_1/conv1_relu_1/Relu", "op": "Relu", "input": ["StatefulPartitionedCall/sequential_1/resnet50_1/conv1_bn_1/batchnorm/add_1"], "attr": {"T": {"type": "DT_FLOAT"}}}, {"name": "StatefulPartitionedCall/sequential_1/resnet50_1/pool1_pad_1/Pad", "op": "Pad", "input": ["StatefulPartitionedCall/sequential_1/resnet50_1/conv1_relu_1/Relu", "StatefulPartitionedCall/sequential_1/resnet50_1/pool1_pad_1/Const"], "attr": {"T": {"type": "DT_FLOAT"}, "Tpaddings": {"type": "DT_INT32"}}}, {"name": "StatefulPartitionedCall/sequential_1/resnet50_1/pool1_pool_1/MaxPool2d", "op": "MaxPool", "input": ["StatefulPartitionedCall/sequential_1/resnet50_1/pool1_pad_1/Pad"], "attr": {"T": {"type": "DT_FLOAT"}, "padding": {"s": "VkFMSUQ="}, "ksize": {"list": {"i": ["1", "3", "3", "1"]}}, "data_format": {"s": "TkhXQw=="}, "strides": {"list": {"i": ["1", "2", "2", "1"]}}, "explicit_paddings": {"list": {}}}}, {"name": "StatefulPartitionedCall/sequential_1/resnet50_1/conv2_block1_0_bn_1/batchnorm/add_1", "op": "_FusedConv2D", "input": ["StatefulPartitionedCall/sequential_1/resnet50_1/pool1_pool_1/MaxPool2d", "StatefulPartitionedCall/sequential_1/resnet50_1/conv2_block1_0_conv_1/convolution/merged_input", "StatefulPartitionedCall/sequential_1/resnet50_1/conv2_block1_0_bn_1/batchnorm/sub"], "device": "/device:CPU:0", "attr": {"T": {"type": "DT_FLOAT"}, "leakyrelu_alpha": {"f": 0.2}, "num_args": {"i": "1"}, "TArgs": {"list": {"type": ["DT_FLOAT"]}}, "explicit_paddings": {"list": {}}, "epsilon": {"f": 0.0}, "num_host_args": {"i": "0"}, "use_cudnn_on_gpu": {"b": true}, "strides": {"list": {"i": ["1", "1", "1", "1"]}}, "padding": {"s": "VkFMSUQ="}, "data_format": {"s": "TkhXQw=="}, "fused_ops": {"list": {"s": ["Qmlhc0FkZA=="]}}, "filter_format": {"s": "SFdJTw=="}, "dilations": {"list": {"i": ["1", "1", "1", "1"]}}}}, {"name": "StatefulPartitionedCall/sequential_1/resnet50_1/conv2_block1_1_relu_1/Relu", "op": "_FusedConv2D", "input": ["StatefulPartitionedCall/sequential_1/resnet50_1/pool1_pool_1/MaxPool2d", "StatefulPartitionedCall/sequential_1/resnet50_1/conv2_block1_1_conv_1/convolution/merged_input", "StatefulPartitionedCall/sequential_1/resnet50_1/conv2_block1_1_bn_1/batchnorm/sub"], "device": "/device:CPU:0", "attr": {"num_args": {"i": "1"}, "T": {"type": "DT_FLOAT"}, "fused_ops": {"list": {"s": ["Qmlhc0FkZA==", "UmVsdQ=="]}}, "filter_format": {"s": "SFdJTw=="}, "epsilon": {"f": 0.0}, "strides": {"list": {"i": ["1", "1", "1", "1"]}}, "use_cudnn_on_gpu": {"b": true}, "TArgs": {"list": {"type": ["DT_FLOAT"]}}, "num_host_args": {"i": "0"}, "dilations": {"list": {"i": ["1", "1", "1", "1"]}}, "data_format": {"s": "TkhXQw=="}, "padding": {"s": "VkFMSUQ="}, "explicit_paddings": {"list": {}}, "leakyrelu_alpha": {"f": 0.2}}}, {"name": "StatefulPartitionedCall/sequential_1/resnet50_1/conv2_block1_2_relu_1/Relu", "op": "_FusedConv2D", "input": ["StatefulPartitionedCall/sequential_1/resnet50_1/conv2_block1_1_relu_1/Relu", "StatefulPartitionedCall/sequential_1/resnet50_1/conv2_block1_2_conv_1/convolution/merged_input", "StatefulPartitionedCall/sequential_1/resnet50_1/conv2_block1_2_bn_1/batchnorm/sub"], "device": "/device:CPU:0", "attr": {"use_cudnn_on_gpu": {"b": true}, "dilations": {"list": {"i": ["1", "1", "1", "1"]}}, "data_format": {"s": "TkhXQw=="}, "T": {"type": "DT_FLOAT"}, "padding": {"s": "U0FNRQ=="}, "num_args": {"i": "1"}, "filter_format": {"s": "SFdJTw=="}, "leakyrelu_alpha": {"f": 0.2}, "TArgs": {"list": {"type": ["DT_FLOAT"]}}, "strides": {"list": {"i": ["1", "1", "1", "1"]}}, "epsilon": {"f": 0.0}, "num_host_args": {"i": "0"}, "explicit_paddings": {"list": {}}, "fused_ops": {"list": {"s": ["Qmlhc0FkZA==", "UmVsdQ=="]}}}}, {"name": "StatefulPartitionedCall/sequential_1/resnet50_1/conv2_block1_3_bn_1/batchnorm/add_1", "op": "_FusedConv2D", "input": ["StatefulPartitionedCall/sequential_1/resnet50_1/conv2_block1_2_relu_1/Relu", "StatefulPartitionedCall/sequential_1/resnet50_1/conv2_block1_3_conv_1/convolution/merged_input", "StatefulPartitionedCall/sequential_1/resnet50_1/conv2_block1_3_bn_1/batchnorm/sub"], "device": "/device:CPU:0", "attr": {"explicit_paddings": {"list": {}}, "T": {"type": "DT_FLOAT"}, "padding": {"s": "VkFMSUQ="}, "num_args": {"i": "1"}, "epsilon": {"f": 0.0}, "leakyrelu_alpha": {"f": 0.2}, "strides": {"list": {"i": ["1", "1", "1", "1"]}}, "filter_format": {"s": "SFdJTw=="}, "fused_ops": {"list": {"s": ["Qmlhc0FkZA=="]}}, "use_cudnn_on_gpu": {"b": true}, "dilations": {"list": {"i": ["1", "1", "1", "1"]}}, "TArgs": {"list": {"type": ["DT_FLOAT"]}}, "num_host_args": {"i": "0"}, "data_format": {"s": "TkhXQw=="}}}, {"name": "StatefulPartitionedCall/sequential_1/resnet50_1/conv2_block1_add_1/Add", "op": "AddV2", "input": ["StatefulPartitionedCall/sequential_1/resnet50_1/conv2_block1_0_bn_1/batchnorm/add_1", "StatefulPartitionedCall/sequential_1/resnet50_1/conv2_block1_3_bn_1/batchnorm/add_1"], "attr": {"T": {"type": "DT_FLOAT"}}}, {"name": "StatefulPartitionedCall/sequential_1/resnet50_1/conv2_block1_out_1/Relu", "op": "Relu", "input": ["StatefulPartitionedCall/sequential_1/resnet50_1/conv2_block1_add_1/Add"], "attr": {"T": {"type": "DT_FLOAT"}}}, {"name": "StatefulPartitionedCall/sequential_1/resnet50_1/conv2_block2_1_relu_1/Relu", "op": "_FusedConv2D", "input": ["StatefulPartitionedCall/sequential_1/resnet50_1/conv2_block1_out_1/Relu", "StatefulPartitionedCall/sequential_1/resnet50_1/conv2_block2_1_conv_1/convolution/merged_input", "StatefulPartitionedCall/sequential_1/resnet50_1/conv2_block2_1_bn_1/batchnorm/sub"], "device": "/device:CPU:0", "attr": {"dilations": {"list": {"i": ["1", "1", "1", "1"]}}, "TArgs": {"list": {"type": ["DT_FLOAT"]}}, "T": {"type": "DT_FLOAT"}, "num_args": {"i": "1"}, "strides": {"list": {"i": ["1", "1", "1", "1"]}}, "filter_format": {"s": "SFdJTw=="}, "explicit_paddings": {"list": {}}, "fused_ops": {"list": {"s": ["Qmlhc0FkZA==", "UmVsdQ=="]}}, "data_format": {"s": "TkhXQw=="}, "epsilon": {"f": 0.0}, "num_host_args": {"i": "0"}, "use_cudnn_on_gpu": {"b": true}, "padding": {"s": "VkFMSUQ="}, "leakyrelu_alpha": {"f": 0.2}}}, {"name": "StatefulPartitionedCall/sequential_1/resnet50_1/conv2_block2_2_relu_1/Relu", "op": "_FusedConv2D", "input": ["StatefulPartitionedCall/sequential_1/resnet50_1/conv2_block2_1_relu_1/Relu", "StatefulPartitionedCall/sequential_1/resnet50_1/conv2_block2_2_conv_1/convolution/merged_input", "StatefulPartitionedCall/sequential_1/resnet50_1/conv2_block2_2_bn_1/batchnorm/sub"], "device": "/device:CPU:0", "attr": {"leakyrelu_alpha": {"f": 0.2}, "TArgs": {"list": {"type": ["DT_FLOAT"]}}, "epsilon": {"f": 0.0}, "num_host_args": {"i": "0"}, "use_cudnn_on_gpu": {"b": true}, "strides": {"list": {"i": ["1", "1", "1", "1"]}}, "padding": {"s": "U0FNRQ=="}, "T": {"type": "DT_FLOAT"}, "data_format": {"s": "TkhXQw=="}, "dilations": {"list": {"i": ["1", "1", "1", "1"]}}, "num_args": {"i": "1"}, "explicit_paddings": {"list": {}}, "fused_ops": {"list": {"s": ["Qmlhc0FkZA==", "UmVsdQ=="]}}, "filter_format": {"s": "SFdJTw=="}}}, {"name": "StatefulPartitionedCall/sequential_1/resnet50_1/conv2_block2_3_bn_1/batchnorm/add_1", "op": "_FusedConv2D", "input": ["StatefulPartitionedCall/sequential_1/resnet50_1/conv2_block2_2_relu_1/Relu", "StatefulPartitionedCall/sequential_1/resnet50_1/conv2_block2_3_conv_1/convolution/merged_input", "StatefulPartitionedCall/sequential_1/resnet50_1/conv2_block2_3_bn_1/batchnorm/sub"], "device": "/device:CPU:0", "attr": {"explicit_paddings": {"list": {}}, "use_cudnn_on_gpu": {"b": true}, "num_host_args": {"i": "0"}, "dilations": {"list": {"i": ["1", "1", "1", "1"]}}, "data_format": {"s": "TkhXQw=="}, "T": {"type": "DT_FLOAT"}, "strides": {"list": {"i": ["1", "1", "1", "1"]}}, "filter_format": {"s": "SFdJTw=="}, "padding": {"s": "VkFMSUQ="}, "fused_ops": {"list": {"s": ["Qmlhc0FkZA=="]}}, "leakyrelu_alpha": {"f": 0.2}, "num_args": {"i": "1"}, "TArgs": {"list": {"type": ["DT_FLOAT"]}}, "epsilon": {"f": 0.0}}}, {"name": "StatefulPartitionedCall/sequential_1/resnet50_1/conv2_block2_add_1/Add", "op": "AddV2", "input": ["StatefulPartitionedCall/sequential_1/resnet50_1/conv2_block1_out_1/Relu", "StatefulPartitionedCall/sequential_1/resnet50_1/conv2_block2_3_bn_1/batchnorm/add_1"], "attr": {"T": {"type": "DT_FLOAT"}}}, {"name": "StatefulPartitionedCall/sequential_1/resnet50_1/conv2_block2_out_1/Relu", "op": "Relu", "input": ["StatefulPartitionedCall/sequential_1/resnet50_1/conv2_block2_add_1/Add"], "attr": {"T": {"type": "DT_FLOAT"}}}, {"name": "StatefulPartitionedCall/sequential_1/resnet50_1/conv2_block3_1_relu_1/Relu", "op": "_FusedConv2D", "input": ["StatefulPartitionedCall/sequential_1/resnet50_1/conv2_block2_out_1/Relu", "StatefulPartitionedCall/sequential_1/resnet50_1/conv2_block3_1_conv_1/convolution/merged_input", "StatefulPartitionedCall/sequential_1/resnet50_1/conv2_block3_1_bn_1/batchnorm/sub"], "device": "/device:CPU:0", "attr": {"padding": {"s": "VkFMSUQ="}, "filter_format": {"s": "SFdJTw=="}, "TArgs": {"list": {"type": ["DT_FLOAT"]}}, "dilations": {"list": {"i": ["1", "1", "1", "1"]}}, "use_cudnn_on_gpu": {"b": true}, "num_args": {"i": "1"}, "data_format": {"s": "TkhXQw=="}, "T": {"type": "DT_FLOAT"}, "explicit_paddings": {"list": {}}, "leakyrelu_alpha": {"f": 0.2}, "epsilon": {"f": 0.0}, "strides": {"list": {"i": ["1", "1", "1", "1"]}}, "fused_ops": {"list": {"s": ["Qmlhc0FkZA==", "UmVsdQ=="]}}, "num_host_args": {"i": "0"}}}, {"name": "StatefulPartitionedCall/sequential_1/resnet50_1/conv2_block3_2_relu_1/Relu", "op": "_FusedConv2D", "input": ["StatefulPartitionedCall/sequential_1/resnet50_1/conv2_block3_1_relu_1/Relu", "StatefulPartitionedCall/sequential_1/resnet50_1/conv2_block3_2_conv_1/convolution/merged_input", "StatefulPartitionedCall/sequential_1/resnet50_1/conv2_block3_2_bn_1/batchnorm/sub"], "device": "/device:CPU:0", "attr": {"num_args": {"i": "1"}, "TArgs": {"list": {"type": ["DT_FLOAT"]}}, "padding": {"s": "U0FNRQ=="}, "fused_ops": {"list": {"s": ["Qmlhc0FkZA==", "UmVsdQ=="]}}, "strides": {"list": {"i": ["1", "1", "1", "1"]}}, "filter_format": {"s": "SFdJTw=="}, "num_host_args": {"i": "0"}, "data_format": {"s": "TkhXQw=="}, "explicit_paddings": {"list": {}}, "use_cudnn_on_gpu": {"b": true}, "dilations": {"list": {"i": ["1", "1", "1", "1"]}}, "epsilon": {"f": 0.0}, "leakyrelu_alpha": {"f": 0.2}, "T": {"type": "DT_FLOAT"}}}, {"name": "StatefulPartitionedCall/sequential_1/resnet50_1/conv2_block3_3_bn_1/batchnorm/add_1", "op": "_FusedConv2D", "input": ["StatefulPartitionedCall/sequential_1/resnet50_1/conv2_block3_2_relu_1/Relu", "StatefulPartitionedCall/sequential_1/resnet50_1/conv2_block3_3_conv_1/convolution/merged_input", "StatefulPartitionedCall/sequential_1/resnet50_1/conv2_block3_3_bn_1/batchnorm/sub"], "device": "/device:CPU:0", "attr": {"epsilon": {"f": 0.0}, "use_cudnn_on_gpu": {"b": true}, "num_host_args": {"i": "0"}, "dilations": {"list": {"i": ["1", "1", "1", "1"]}}, "leakyrelu_alpha": {"f": 0.2}, "padding": {"s": "VkFMSUQ="}, "strides": {"list": {"i": ["1", "1", "1", "1"]}}, "explicit_paddings": {"list": {}}, "filter_format": {"s": "SFdJTw=="}, "TArgs": {"list": {"type": ["DT_FLOAT"]}}, "num_args": {"i": "1"}, "fused_ops": {"list": {"s": ["Qmlhc0FkZA=="]}}, "T": {"type": "DT_FLOAT"}, "data_format": {"s": "TkhXQw=="}}}, {"name": "StatefulPartitionedCall/sequential_1/resnet50_1/conv2_block3_add_1/Add", "op": "AddV2", "input": ["StatefulPartitionedCall/sequential_1/resnet50_1/conv2_block2_out_1/Relu", "StatefulPartitionedCall/sequential_1/resnet50_1/conv2_block3_3_bn_1/batchnorm/add_1"], "attr": {"T": {"type": "DT_FLOAT"}}}, {"name": "StatefulPartitionedCall/sequential_1/resnet50_1/conv2_block3_out_1/Relu", "op": "Relu", "input": ["StatefulPartitionedCall/sequential_1/resnet50_1/conv2_block3_add_1/Add"], "attr": {"T": {"type": "DT_FLOAT"}}}, {"name": "StatefulPartitionedCall/sequential_1/resnet50_1/conv3_block1_0_bn_1/batchnorm/add_1", "op": "_FusedConv2D", "input": ["StatefulPartitionedCall/sequential_1/resnet50_1/conv2_block3_out_1/Relu", "StatefulPartitionedCall/sequential_1/resnet50_1/conv3_block1_0_conv_1/convolution/merged_input", "StatefulPartitionedCall/sequential_1/resnet50_1/conv3_block1_0_bn_1/batchnorm/sub"], "device": "/device:CPU:0", "attr": {"padding": {"s": "VkFMSUQ="}, "explicit_paddings": {"list": {}}, "num_args": {"i": "1"}, "epsilon": {"f": 0.0}, "T": {"type": "DT_FLOAT"}, "strides": {"list": {"i": ["1", "2", "2", "1"]}}, "fused_ops": {"list": {"s": ["Qmlhc0FkZA=="]}}, "TArgs": {"list": {"type": ["DT_FLOAT"]}}, "dilations": {"list": {"i": ["1", "1", "1", "1"]}}, "leakyrelu_alpha": {"f": 0.2}, "data_format": {"s": "TkhXQw=="}, "filter_format": {"s": "SFdJTw=="}, "use_cudnn_on_gpu": {"b": true}, "num_host_args": {"i": "0"}}}, {"name": "StatefulPartitionedCall/sequential_1/resnet50_1/conv3_block1_1_relu_1/Relu", "op": "_FusedConv2D", "input": ["StatefulPartitionedCall/sequential_1/resnet50_1/conv2_block3_out_1/Relu", "StatefulPartitionedCall/sequential_1/resnet50_1/conv3_block1_1_conv_1/convolution/merged_input", "StatefulPartitionedCall/sequential_1/resnet50_1/conv3_block1_1_bn_1/batchnorm/sub"], "device": "/device:CPU:0", "attr": {"dilations": {"list": {"i": ["1", "1", "1", "1"]}}, "padding": {"s": "VkFMSUQ="}, "filter_format": {"s": "SFdJTw=="}, "explicit_paddings": {"list": {}}, "use_cudnn_on_gpu": {"b": true}, "TArgs": {"list": {"type": ["DT_FLOAT"]}}, "num_args": {"i": "1"}, "epsilon": {"f": 0.0}, "strides": {"list": {"i": ["1", "2", "2", "1"]}}, "fused_ops": {"list": {"s": ["Qmlhc0FkZA==", "UmVsdQ=="]}}, "data_format": {"s": "TkhXQw=="}, "T": {"type": "DT_FLOAT"}, "leakyrelu_alpha": {"f": 0.2}, "num_host_args": {"i": "0"}}}, {"name": "StatefulPartitionedCall/sequential_1/resnet50_1/conv3_block1_2_relu_1/Relu", "op": "_FusedConv2D", "input": ["StatefulPartitionedCall/sequential_1/resnet50_1/conv3_block1_1_relu_1/Relu", "StatefulPartitionedCall/sequential_1/resnet50_1/conv3_block1_2_conv_1/convolution/merged_input", "StatefulPartitionedCall/sequential_1/resnet50_1/conv3_block1_2_bn_1/batchnorm/sub"], "device": "/device:CPU:0", "attr": {"data_format": {"s": "TkhXQw=="}, "TArgs": {"list": {"type": ["DT_FLOAT"]}}, "dilations": {"list": {"i": ["1", "1", "1", "1"]}}, "fused_ops": {"list": {"s": ["Qmlhc0FkZA==", "UmVsdQ=="]}}, "num_host_args": {"i": "0"}, "T": {"type": "DT_FLOAT"}, "leakyrelu_alpha": {"f": 0.2}, "explicit_paddings": {"list": {}}, "epsilon": {"f": 0.0}, "use_cudnn_on_gpu": {"b": true}, "filter_format": {"s": "SFdJTw=="}, "strides": {"list": {"i": ["1", "1", "1", "1"]}}, "padding": {"s": "U0FNRQ=="}, "num_args": {"i": "1"}}}, {"name": "StatefulPartitionedCall/sequential_1/resnet50_1/conv3_block1_3_bn_1/batchnorm/add_1", "op": "_FusedConv2D", "input": ["StatefulPartitionedCall/sequential_1/resnet50_1/conv3_block1_2_relu_1/Relu", "StatefulPartitionedCall/sequential_1/resnet50_1/conv3_block1_3_conv_1/convolution/merged_input", "StatefulPartitionedCall/sequential_1/resnet50_1/conv3_block1_3_bn_1/batchnorm/sub"], "device": "/device:CPU:0", "attr": {"filter_format": {"s": "SFdJTw=="}, "T": {"type": "DT_FLOAT"}, "fused_ops": {"list": {"s": ["Qmlhc0FkZA=="]}}, "data_format": {"s": "TkhXQw=="}, "dilations": {"list": {"i": ["1", "1", "1", "1"]}}, "explicit_paddings": {"list": {}}, "num_host_args": {"i": "0"}, "num_args": {"i": "1"}, "padding": {"s": "VkFMSUQ="}, "leakyrelu_alpha": {"f": 0.2}, "use_cudnn_on_gpu": {"b": true}, "TArgs": {"list": {"type": ["DT_FLOAT"]}}, "strides": {"list": {"i": ["1", "1", "1", "1"]}}, "epsilon": {"f": 0.0}}}, {"name": "StatefulPartitionedCall/sequential_1/resnet50_1/conv3_block1_add_1/Add", "op": "AddV2", "input": ["StatefulPartitionedCall/sequential_1/resnet50_1/conv3_block1_0_bn_1/batchnorm/add_1", "StatefulPartitionedCall/sequential_1/resnet50_1/conv3_block1_3_bn_1/batchnorm/add_1"], "attr": {"T": {"type": "DT_FLOAT"}}}, {"name": "StatefulPartitionedCall/sequential_1/resnet50_1/conv3_block1_out_1/Relu", "op": "Relu", "input": ["StatefulPartitionedCall/sequential_1/resnet50_1/conv3_block1_add_1/Add"], "attr": {"T": {"type": "DT_FLOAT"}}}, {"name": "StatefulPartitionedCall/sequential_1/resnet50_1/conv3_block2_1_relu_1/Relu", "op": "_FusedConv2D", "input": ["StatefulPartitionedCall/sequential_1/resnet50_1/conv3_block1_out_1/Relu", "StatefulPartitionedCall/sequential_1/resnet50_1/conv3_block2_1_conv_1/convolution/merged_input", "StatefulPartitionedCall/sequential_1/resnet50_1/conv3_block2_1_bn_1/batchnorm/sub"], "device": "/device:CPU:0", "attr": {"num_args": {"i": "1"}, "strides": {"list": {"i": ["1", "1", "1", "1"]}}, "use_cudnn_on_gpu": {"b": true}, "T": {"type": "DT_FLOAT"}, "padding": {"s": "VkFMSUQ="}, "filter_format": {"s": "SFdJTw=="}, "dilations": {"list": {"i": ["1", "1", "1", "1"]}}, "fused_ops": {"list": {"s": ["Qmlhc0FkZA==", "UmVsdQ=="]}}, "epsilon": {"f": 0.0}, "num_host_args": {"i": "0"}, "leakyrelu_alpha": {"f": 0.2}, "explicit_paddings": {"list": {}}, "data_format": {"s": "TkhXQw=="}, "TArgs": {"list": {"type": ["DT_FLOAT"]}}}}, {"name": "StatefulPartitionedCall/sequential_1/resnet50_1/conv3_block2_2_relu_1/Relu", "op": "_FusedConv2D", "input": ["StatefulPartitionedCall/sequential_1/resnet50_1/conv3_block2_1_relu_1/Relu", "StatefulPartitionedCall/sequential_1/resnet50_1/conv3_block2_2_conv_1/convolution/merged_input", "StatefulPartitionedCall/sequential_1/resnet50_1/conv3_block2_2_bn_1/batchnorm/sub"], "device": "/device:CPU:0", "attr": {"num_host_args": {"i": "0"}, "leakyrelu_alpha": {"f": 0.2}, "data_format": {"s": "TkhXQw=="}, "use_cudnn_on_gpu": {"b": true}, "num_args": {"i": "1"}, "fused_ops": {"list": {"s": ["Qmlhc0FkZA==", "UmVsdQ=="]}}, "explicit_paddings": {"list": {}}, "epsilon": {"f": 0.0}, "dilations": {"list": {"i": ["1", "1", "1", "1"]}}, "filter_format": {"s": "SFdJTw=="}, "strides": {"list": {"i": ["1", "1", "1", "1"]}}, "TArgs": {"list": {"type": ["DT_FLOAT"]}}, "T": {"type": "DT_FLOAT"}, "padding": {"s": "U0FNRQ=="}}}, {"name": "StatefulPartitionedCall/sequential_1/resnet50_1/conv3_block2_3_bn_1/batchnorm/add_1", "op": "_FusedConv2D", "input": ["StatefulPartitionedCall/sequential_1/resnet50_1/conv3_block2_2_relu_1/Relu", "StatefulPartitionedCall/sequential_1/resnet50_1/conv3_block2_3_conv_1/convolution/merged_input", "StatefulPartitionedCall/sequential_1/resnet50_1/conv3_block2_3_bn_1/batchnorm/sub"], "device": "/device:CPU:0", "attr": {"num_host_args": {"i": "0"}, "fused_ops": {"list": {"s": ["Qmlhc0FkZA=="]}}, "epsilon": {"f": 0.0}, "explicit_paddings": {"list": {}}, "num_args": {"i": "1"}, "dilations": {"list": {"i": ["1", "1", "1", "1"]}}, "filter_format": {"s": "SFdJTw=="}, "data_format": {"s": "TkhXQw=="}, "strides": {"list": {"i": ["1", "1", "1", "1"]}}, "leakyrelu_alpha": {"f": 0.2}, "TArgs": {"list": {"type": ["DT_FLOAT"]}}, "T": {"type": "DT_FLOAT"}, "padding": {"s": "VkFMSUQ="}, "use_cudnn_on_gpu": {"b": true}}}, {"name": "StatefulPartitionedCall/sequential_1/resnet50_1/conv3_block2_add_1/Add", "op": "AddV2", "input": ["StatefulPartitionedCall/sequential_1/resnet50_1/conv3_block1_out_1/Relu", "StatefulPartitionedCall/sequential_1/resnet50_1/conv3_block2_3_bn_1/batchnorm/add_1"], "attr": {"T": {"type": "DT_FLOAT"}}}, {"name": "StatefulPartitionedCall/sequential_1/resnet50_1/conv3_block2_out_1/Relu", "op": "Relu", "input": ["StatefulPartitionedCall/sequential_1/resnet50_1/conv3_block2_add_1/Add"], "attr": {"T": {"type": "DT_FLOAT"}}}, {"name": "StatefulPartitionedCall/sequential_1/resnet50_1/conv3_block3_1_relu_1/Relu", "op": "_FusedConv2D", "input": ["StatefulPartitionedCall/sequential_1/resnet50_1/conv3_block2_out_1/Relu", "StatefulPartitionedCall/sequential_1/resnet50_1/conv3_block3_1_conv_1/convolution/merged_input", "StatefulPartitionedCall/sequential_1/resnet50_1/conv3_block3_1_bn_1/batchnorm/sub"], "device": "/device:CPU:0", "attr": {"explicit_paddings": {"list": {}}, "num_args": {"i": "1"}, "dilations": {"list": {"i": ["1", "1", "1", "1"]}}, "fused_ops": {"list": {"s": ["Qmlhc0FkZA==", "UmVsdQ=="]}}, "leakyrelu_alpha": {"f": 0.2}, "TArgs": {"list": {"type": ["DT_FLOAT"]}}, "epsilon": {"f": 0.0}, "data_format": {"s": "TkhXQw=="}, "use_cudnn_on_gpu": {"b": true}, "padding": {"s": "VkFMSUQ="}, "num_host_args": {"i": "0"}, "filter_format": {"s": "SFdJTw=="}, "T": {"type": "DT_FLOAT"}, "strides": {"list": {"i": ["1", "1", "1", "1"]}}}}, {"name": "StatefulPartitionedCall/sequential_1/resnet50_1/conv3_block3_2_relu_1/Relu", "op": "_FusedConv2D", "input": ["StatefulPartitionedCall/sequential_1/resnet50_1/conv3_block3_1_relu_1/Relu", "StatefulPartitionedCall/sequential_1/resnet50_1/conv3_block3_2_conv_1/convolution/merged_input", "StatefulPartitionedCall/sequential_1/resnet50_1/conv3_block3_2_bn_1/batchnorm/sub"], "device": "/device:CPU:0", "attr": {"padding": {"s": "U0FNRQ=="}, "fused_ops": {"list": {"s": ["Qmlhc0FkZA==", "UmVsdQ=="]}}, "TArgs": {"list": {"type": ["DT_FLOAT"]}}, "dilations": {"list": {"i": ["1", "1", "1", "1"]}}, "num_host_args": {"i": "0"}, "T": {"type": "DT_FLOAT"}, "use_cudnn_on_gpu": {"b": true}, "filter_format": {"s": "SFdJTw=="}, "leakyrelu_alpha": {"f": 0.2}, "num_args": {"i": "1"}, "strides": {"list": {"i": ["1", "1", "1", "1"]}}, "data_format": {"s": "TkhXQw=="}, "explicit_paddings": {"list": {}}, "epsilon": {"f": 0.0}}}, {"name": "StatefulPartitionedCall/sequential_1/resnet50_1/conv3_block3_3_bn_1/batchnorm/add_1", "op": "_FusedConv2D", "input": ["StatefulPartitionedCall/sequential_1/resnet50_1/conv3_block3_2_relu_1/Relu", "StatefulPartitionedCall/sequential_1/resnet50_1/conv3_block3_3_conv_1/convolution/merged_input", "StatefulPartitionedCall/sequential_1/resnet50_1/conv3_block3_3_bn_1/batchnorm/sub"], "device": "/device:CPU:0", "attr": {"use_cudnn_on_gpu": {"b": true}, "num_host_args": {"i": "0"}, "strides": {"list": {"i": ["1", "1", "1", "1"]}}, "fused_ops": {"list": {"s": ["Qmlhc0FkZA=="]}}, "TArgs": {"list": {"type": ["DT_FLOAT"]}}, "num_args": {"i": "1"}, "filter_format": {"s": "SFdJTw=="}, "dilations": {"list": {"i": ["1", "1", "1", "1"]}}, "data_format": {"s": "TkhXQw=="}, "T": {"type": "DT_FLOAT"}, "explicit_paddings": {"list": {}}, "epsilon": {"f": 0.0}, "leakyrelu_alpha": {"f": 0.2}, "padding": {"s": "VkFMSUQ="}}}, {"name": "StatefulPartitionedCall/sequential_1/resnet50_1/conv3_block3_add_1/Add", "op": "AddV2", "input": ["StatefulPartitionedCall/sequential_1/resnet50_1/conv3_block2_out_1/Relu", "StatefulPartitionedCall/sequential_1/resnet50_1/conv3_block3_3_bn_1/batchnorm/add_1"], "attr": {"T": {"type": "DT_FLOAT"}}}, {"name": "StatefulPartitionedCall/sequential_1/resnet50_1/conv3_block3_out_1/Relu", "op": "Relu", "input": ["StatefulPartitionedCall/sequential_1/resnet50_1/conv3_block3_add_1/Add"], "attr": {"T": {"type": "DT_FLOAT"}}}, {"name": "StatefulPartitionedCall/sequential_1/resnet50_1/conv3_block4_1_relu_1/Relu", "op": "_FusedConv2D", "input": ["StatefulPartitionedCall/sequential_1/resnet50_1/conv3_block3_out_1/Relu", "StatefulPartitionedCall/sequential_1/resnet50_1/conv3_block4_1_conv_1/convolution/merged_input", "StatefulPartitionedCall/sequential_1/resnet50_1/conv3_block4_1_bn_1/batchnorm/sub"], "device": "/device:CPU:0", "attr": {"padding": {"s": "VkFMSUQ="}, "explicit_paddings": {"list": {}}, "num_host_args": {"i": "0"}, "use_cudnn_on_gpu": {"b": true}, "epsilon": {"f": 0.0}, "data_format": {"s": "TkhXQw=="}, "strides": {"list": {"i": ["1", "1", "1", "1"]}}, "fused_ops": {"list": {"s": ["Qmlhc0FkZA==", "UmVsdQ=="]}}, "filter_format": {"s": "SFdJTw=="}, "num_args": {"i": "1"}, "leakyrelu_alpha": {"f": 0.2}, "TArgs": {"list": {"type": ["DT_FLOAT"]}}, "T": {"type": "DT_FLOAT"}, "dilations": {"list": {"i": ["1", "1", "1", "1"]}}}}, {"name": "StatefulPartitionedCall/sequential_1/resnet50_1/conv3_block4_2_relu_1/Relu", "op": "_FusedConv2D", "input": ["StatefulPartitionedCall/sequential_1/resnet50_1/conv3_block4_1_relu_1/Relu", "StatefulPartitionedCall/sequential_1/resnet50_1/conv3_block4_2_conv_1/convolution/merged_input", "StatefulPartitionedCall/sequential_1/resnet50_1/conv3_block4_2_bn_1/batchnorm/sub"], "device": "/device:CPU:0", "attr": {"data_format": {"s": "TkhXQw=="}, "TArgs": {"list": {"type": ["DT_FLOAT"]}}, "strides": {"list": {"i": ["1", "1", "1", "1"]}}, "use_cudnn_on_gpu": {"b": true}, "num_host_args": {"i": "0"}, "T": {"type": "DT_FLOAT"}, "explicit_paddings": {"list": {}}, "epsilon": {"f": 0.0}, "dilations": {"list": {"i": ["1", "1", "1", "1"]}}, "padding": {"s": "U0FNRQ=="}, "num_args": {"i": "1"}, "leakyrelu_alpha": {"f": 0.2}, "filter_format": {"s": "SFdJTw=="}, "fused_ops": {"list": {"s": ["Qmlhc0FkZA==", "UmVsdQ=="]}}}}, {"name": "StatefulPartitionedCall/sequential_1/resnet50_1/conv3_block4_3_bn_1/batchnorm/add_1", "op": "_FusedConv2D", "input": ["StatefulPartitionedCall/sequential_1/resnet50_1/conv3_block4_2_relu_1/Relu", "StatefulPartitionedCall/sequential_1/resnet50_1/conv3_block4_3_conv_1/convolution/merged_input", "StatefulPartitionedCall/sequential_1/resnet50_1/conv3_block4_3_bn_1/batchnorm/sub"], "device": "/device:CPU:0", "attr": {"filter_format": {"s": "SFdJTw=="}, "dilations": {"list": {"i": ["1", "1", "1", "1"]}}, "TArgs": {"list": {"type": ["DT_FLOAT"]}}, "T": {"type": "DT_FLOAT"}, "padding": {"s": "VkFMSUQ="}, "fused_ops": {"list": {"s": ["Qmlhc0FkZA=="]}}, "explicit_paddings": {"list": {}}, "num_args": {"i": "1"}, "leakyrelu_alpha": {"f": 0.2}, "num_host_args": {"i": "0"}, "use_cudnn_on_gpu": {"b": true}, "data_format": {"s": "TkhXQw=="}, "epsilon": {"f": 0.0}, "strides": {"list": {"i": ["1", "1", "1", "1"]}}}}, {"name": "StatefulPartitionedCall/sequential_1/resnet50_1/conv3_block4_add_1/Add", "op": "AddV2", "input": ["StatefulPartitionedCall/sequential_1/resnet50_1/conv3_block3_out_1/Relu", "StatefulPartitionedCall/sequential_1/resnet50_1/conv3_block4_3_bn_1/batchnorm/add_1"], "attr": {"T": {"type": "DT_FLOAT"}}}, {"name": "StatefulPartitionedCall/sequential_1/resnet50_1/conv3_block4_out_1/Relu", "op": "Relu", "input": ["StatefulPartitionedCall/sequential_1/resnet50_1/conv3_block4_add_1/Add"], "attr": {"T": {"type": "DT_FLOAT"}}}, {"name": "StatefulPartitionedCall/sequential_1/resnet50_1/conv4_block1_0_bn_1/batchnorm/add_1", "op": "_FusedConv2D", "input": ["StatefulPartitionedCall/sequential_1/resnet50_1/conv3_block4_out_1/Relu", "StatefulPartitionedCall/sequential_1/resnet50_1/conv4_block1_0_conv_1/convolution/merged_input", "StatefulPartitionedCall/sequential_1/resnet50_1/conv4_block1_0_bn_1/batchnorm/sub"], "device": "/device:CPU:0", "attr": {"leakyrelu_alpha": {"f": 0.2}, "data_format": {"s": "TkhXQw=="}, "epsilon": {"f": 0.0}, "TArgs": {"list": {"type": ["DT_FLOAT"]}}, "explicit_paddings": {"list": {}}, "dilations": {"list": {"i": ["1", "1", "1", "1"]}}, "padding": {"s": "VkFMSUQ="}, "fused_ops": {"list": {"s": ["Qmlhc0FkZA=="]}}, "num_args": {"i": "1"}, "num_host_args": {"i": "0"}, "T": {"type": "DT_FLOAT"}, "use_cudnn_on_gpu": {"b": true}, "strides": {"list": {"i": ["1", "2", "2", "1"]}}, "filter_format": {"s": "SFdJTw=="}}}, {"name": "StatefulPartitionedCall/sequential_1/resnet50_1/conv4_block1_1_relu_1/Relu", "op": "_FusedConv2D", "input": ["StatefulPartitionedCall/sequential_1/resnet50_1/conv3_block4_out_1/Relu", "StatefulPartitionedCall/sequential_1/resnet50_1/conv4_block1_1_conv_1/convolution/merged_input", "StatefulPartitionedCall/sequential_1/resnet50_1/conv4_block1_1_bn_1/batchnorm/sub"], "device": "/device:CPU:0", "attr": {"num_host_args": {"i": "0"}, "leakyrelu_alpha": {"f": 0.2}, "use_cudnn_on_gpu": {"b": true}, "padding": {"s": "VkFMSUQ="}, "num_args": {"i": "1"}, "TArgs": {"list": {"type": ["DT_FLOAT"]}}, "data_format": {"s": "TkhXQw=="}, "T": {"type": "DT_FLOAT"}, "dilations": {"list": {"i": ["1", "1", "1", "1"]}}, "filter_format": {"s": "SFdJTw=="}, "explicit_paddings": {"list": {}}, "fused_ops": {"list": {"s": ["Qmlhc0FkZA==", "UmVsdQ=="]}}, "strides": {"list": {"i": ["1", "2", "2", "1"]}}, "epsilon": {"f": 0.0}}}, {"name": "StatefulPartitionedCall/sequential_1/resnet50_1/conv4_block1_2_relu_1/Relu", "op": "_FusedConv2D", "input": ["StatefulPartitionedCall/sequential_1/resnet50_1/conv4_block1_1_relu_1/Relu", "StatefulPartitionedCall/sequential_1/resnet50_1/conv4_block1_2_conv_1/convolution/merged_input", "StatefulPartitionedCall/sequential_1/resnet50_1/conv4_block1_2_bn_1/batchnorm/sub"], "device": "/device:CPU:0", "attr": {"leakyrelu_alpha": {"f": 0.2}, "strides": {"list": {"i": ["1", "1", "1", "1"]}}, "data_format": {"s": "TkhXQw=="}, "T": {"type": "DT_FLOAT"}, "TArgs": {"list": {"type": ["DT_FLOAT"]}}, "epsilon": {"f": 0.0}, "explicit_paddings": {"list": {}}, "num_args": {"i": "1"}, "filter_format": {"s": "SFdJTw=="}, "dilations": {"list": {"i": ["1", "1", "1", "1"]}}, "fused_ops": {"list": {"s": ["Qmlhc0FkZA==", "UmVsdQ=="]}}, "num_host_args": {"i": "0"}, "use_cudnn_on_gpu": {"b": true}, "padding": {"s": "U0FNRQ=="}}}, {"name": "StatefulPartitionedCall/sequential_1/resnet50_1/conv4_block1_3_bn_1/batchnorm/add_1", "op": "_FusedConv2D", "input": ["StatefulPartitionedCall/sequential_1/resnet50_1/conv4_block1_2_relu_1/Relu", "StatefulPartitionedCall/sequential_1/resnet50_1/conv4_block1_3_conv_1/convolution/merged_input", "StatefulPartitionedCall/sequential_1/resnet50_1/conv4_block1_3_bn_1/batchnorm/sub"], "device": "/device:CPU:0", "attr": {"filter_format": {"s": "SFdJTw=="}, "explicit_paddings": {"list": {}}, "num_args": {"i": "1"}, "data_format": {"s": "TkhXQw=="}, "use_cudnn_on_gpu": {"b": true}, "strides": {"list": {"i": ["1", "1", "1", "1"]}}, "epsilon": {"f": 0.0}, "leakyrelu_alpha": {"f": 0.2}, "T": {"type": "DT_FLOAT"}, "TArgs": {"list": {"type": ["DT_FLOAT"]}}, "fused_ops": {"list": {"s": ["Qmlhc0FkZA=="]}}, "num_host_args": {"i": "0"}, "padding": {"s": "VkFMSUQ="}, "dilations": {"list": {"i": ["1", "1", "1", "1"]}}}}, {"name": "StatefulPartitionedCall/sequential_1/resnet50_1/conv4_block1_add_1/Add", "op": "AddV2", "input": ["StatefulPartitionedCall/sequential_1/resnet50_1/conv4_block1_0_bn_1/batchnorm/add_1", "StatefulPartitionedCall/sequential_1/resnet50_1/conv4_block1_3_bn_1/batchnorm/add_1"], "attr": {"T": {"type": "DT_FLOAT"}}}, {"name": "StatefulPartitionedCall/sequential_1/resnet50_1/conv4_block1_out_1/Relu", "op": "Relu", "input": ["StatefulPartitionedCall/sequential_1/resnet50_1/conv4_block1_add_1/Add"], "attr": {"T": {"type": "DT_FLOAT"}}}, {"name": "StatefulPartitionedCall/sequential_1/resnet50_1/conv4_block2_1_relu_1/Relu", "op": "_FusedConv2D", "input": ["StatefulPartitionedCall/sequential_1/resnet50_1/conv4_block1_out_1/Relu", "StatefulPartitionedCall/sequential_1/resnet50_1/conv4_block2_1_conv_1/convolution/merged_input", "StatefulPartitionedCall/sequential_1/resnet50_1/conv4_block2_1_bn_1/batchnorm/sub"], "device": "/device:CPU:0", "attr": {"dilations": {"list": {"i": ["1", "1", "1", "1"]}}, "padding": {"s": "VkFMSUQ="}, "epsilon": {"f": 0.0}, "TArgs": {"list": {"type": ["DT_FLOAT"]}}, "explicit_paddings": {"list": {}}, "use_cudnn_on_gpu": {"b": true}, "strides": {"list": {"i": ["1", "1", "1", "1"]}}, "leakyrelu_alpha": {"f": 0.2}, "fused_ops": {"list": {"s": ["Qmlhc0FkZA==", "UmVsdQ=="]}}, "T": {"type": "DT_FLOAT"}, "num_args": {"i": "1"}, "filter_format": {"s": "SFdJTw=="}, "data_format": {"s": "TkhXQw=="}, "num_host_args": {"i": "0"}}}, {"name": "StatefulPartitionedCall/sequential_1/resnet50_1/conv4_block2_2_relu_1/Relu", "op": "_FusedConv2D", "input": ["StatefulPartitionedCall/sequential_1/resnet50_1/conv4_block2_1_relu_1/Relu", "StatefulPartitionedCall/sequential_1/resnet50_1/conv4_block2_2_conv_1/convolution/merged_input", "StatefulPartitionedCall/sequential_1/resnet50_1/conv4_block2_2_bn_1/batchnorm/sub"], "device": "/device:CPU:0", "attr": {"num_args": {"i": "1"}, "filter_format": {"s": "SFdJTw=="}, "leakyrelu_alpha": {"f": 0.2}, "padding": {"s": "U0FNRQ=="}, "fused_ops": {"list": {"s": ["Qmlhc0FkZA==", "UmVsdQ=="]}}, "T": {"type": "DT_FLOAT"}, "TArgs": {"list": {"type": ["DT_FLOAT"]}}, "num_host_args": {"i": "0"}, "use_cudnn_on_gpu": {"b": true}, "dilations": {"list": {"i": ["1", "1", "1", "1"]}}, "data_format": {"s": "TkhXQw=="}, "strides": {"list": {"i": ["1", "1", "1", "1"]}}, "explicit_paddings": {"list": {}}, "epsilon": {"f": 0.0}}}, {"name": "StatefulPartitionedCall/sequential_1/resnet50_1/conv4_block2_3_bn_1/batchnorm/add_1", "op": "_FusedConv2D", "input": ["StatefulPartitionedCall/sequential_1/resnet50_1/conv4_block2_2_relu_1/Relu", "StatefulPartitionedCall/sequential_1/resnet50_1/conv4_block2_3_conv_1/convolution/merged_input", "StatefulPartitionedCall/sequential_1/resnet50_1/conv4_block2_3_bn_1/batchnorm/sub"], "device": "/device:CPU:0", "attr": {"num_args": {"i": "1"}, "explicit_paddings": {"list": {}}, "T": {"type": "DT_FLOAT"}, "padding": {"s": "VkFMSUQ="}, "strides": {"list": {"i": ["1", "1", "1", "1"]}}, "use_cudnn_on_gpu": {"b": true}, "TArgs": {"list": {"type": ["DT_FLOAT"]}}, "fused_ops": {"list": {"s": ["Qmlhc0FkZA=="]}}, "epsilon": {"f": 0.0}, "num_host_args": {"i": "0"}, "leakyrelu_alpha": {"f": 0.2}, "filter_format": {"s": "SFdJTw=="}, "data_format": {"s": "TkhXQw=="}, "dilations": {"list": {"i": ["1", "1", "1", "1"]}}}}, {"name": "StatefulPartitionedCall/sequential_1/resnet50_1/conv4_block2_add_1/Add", "op": "AddV2", "input": ["StatefulPartitionedCall/sequential_1/resnet50_1/conv4_block1_out_1/Relu", "StatefulPartitionedCall/sequential_1/resnet50_1/conv4_block2_3_bn_1/batchnorm/add_1"], "attr": {"T": {"type": "DT_FLOAT"}}}, {"name": "StatefulPartitionedCall/sequential_1/resnet50_1/conv4_block2_out_1/Relu", "op": "Relu", "input": ["StatefulPartitionedCall/sequential_1/resnet50_1/conv4_block2_add_1/Add"], "attr": {"T": {"type": "DT_FLOAT"}}}, {"name": "StatefulPartitionedCall/sequential_1/resnet50_1/conv4_block3_1_relu_1/Relu", "op": "_FusedConv2D", "input": ["StatefulPartitionedCall/sequential_1/resnet50_1/conv4_block2_out_1/Relu", "StatefulPartitionedCall/sequential_1/resnet50_1/conv4_block3_1_conv_1/convolution/merged_input", "StatefulPartitionedCall/sequential_1/resnet50_1/conv4_block3_1_bn_1/batchnorm/sub"], "device": "/device:CPU:0", "attr": {"fused_ops": {"list": {"s": ["Qmlhc0FkZA==", "UmVsdQ=="]}}, "explicit_paddings": {"list": {}}, "num_args": {"i": "1"}, "T": {"type": "DT_FLOAT"}, "strides": {"list": {"i": ["1", "1", "1", "1"]}}, "padding": {"s": "VkFMSUQ="}, "filter_format": {"s": "SFdJTw=="}, "use_cudnn_on_gpu": {"b": true}, "leakyrelu_alpha": {"f": 0.2}, "epsilon": {"f": 0.0}, "num_host_args": {"i": "0"}, "TArgs": {"list": {"type": ["DT_FLOAT"]}}, "data_format": {"s": "TkhXQw=="}, "dilations": {"list": {"i": ["1", "1", "1", "1"]}}}}, {"name": "StatefulPartitionedCall/sequential_1/resnet50_1/conv4_block3_2_relu_1/Relu", "op": "_FusedConv2D", "input": ["StatefulPartitionedCall/sequential_1/resnet50_1/conv4_block3_1_relu_1/Relu", "StatefulPartitionedCall/sequential_1/resnet50_1/conv4_block3_2_conv_1/convolution/merged_input", "StatefulPartitionedCall/sequential_1/resnet50_1/conv4_block3_2_bn_1/batchnorm/sub"], "device": "/device:CPU:0", "attr": {"TArgs": {"list": {"type": ["DT_FLOAT"]}}, "epsilon": {"f": 0.0}, "T": {"type": "DT_FLOAT"}, "filter_format": {"s": "SFdJTw=="}, "fused_ops": {"list": {"s": ["Qmlhc0FkZA==", "UmVsdQ=="]}}, "leakyrelu_alpha": {"f": 0.2}, "num_host_args": {"i": "0"}, "data_format": {"s": "TkhXQw=="}, "num_args": {"i": "1"}, "dilations": {"list": {"i": ["1", "1", "1", "1"]}}, "explicit_paddings": {"list": {}}, "use_cudnn_on_gpu": {"b": true}, "strides": {"list": {"i": ["1", "1", "1", "1"]}}, "padding": {"s": "U0FNRQ=="}}}, {"name": "StatefulPartitionedCall/sequential_1/resnet50_1/conv4_block3_3_bn_1/batchnorm/add_1", "op": "_FusedConv2D", "input": ["StatefulPartitionedCall/sequential_1/resnet50_1/conv4_block3_2_relu_1/Relu", "StatefulPartitionedCall/sequential_1/resnet50_1/conv4_block3_3_conv_1/convolution/merged_input", "StatefulPartitionedCall/sequential_1/resnet50_1/conv4_block3_3_bn_1/batchnorm/sub"], "device": "/device:CPU:0", "attr": {"leakyrelu_alpha": {"f": 0.2}, "dilations": {"list": {"i": ["1", "1", "1", "1"]}}, "use_cudnn_on_gpu": {"b": true}, "padding": {"s": "VkFMSUQ="}, "TArgs": {"list": {"type": ["DT_FLOAT"]}}, "data_format": {"s": "TkhXQw=="}, "T": {"type": "DT_FLOAT"}, "num_args": {"i": "1"}, "explicit_paddings": {"list": {}}, "num_host_args": {"i": "0"}, "strides": {"list": {"i": ["1", "1", "1", "1"]}}, "epsilon": {"f": 0.0}, "fused_ops": {"list": {"s": ["Qmlhc0FkZA=="]}}, "filter_format": {"s": "SFdJTw=="}}}, {"name": "StatefulPartitionedCall/sequential_1/resnet50_1/conv4_block3_add_1/Add", "op": "AddV2", "input": ["StatefulPartitionedCall/sequential_1/resnet50_1/conv4_block2_out_1/Relu", "StatefulPartitionedCall/sequential_1/resnet50_1/conv4_block3_3_bn_1/batchnorm/add_1"], "attr": {"T": {"type": "DT_FLOAT"}}}, {"name": "StatefulPartitionedCall/sequential_1/resnet50_1/conv4_block3_out_1/Relu", "op": "Relu", "input": ["StatefulPartitionedCall/sequential_1/resnet50_1/conv4_block3_add_1/Add"], "attr": {"T": {"type": "DT_FLOAT"}}}, {"name": "StatefulPartitionedCall/sequential_1/resnet50_1/conv4_block4_1_relu_1/Relu", "op": "_FusedConv2D", "input": ["StatefulPartitionedCall/sequential_1/resnet50_1/conv4_block3_out_1/Relu", "StatefulPartitionedCall/sequential_1/resnet50_1/conv4_block4_1_conv_1/convolution/merged_input", "StatefulPartitionedCall/sequential_1/resnet50_1/conv4_block4_1_bn_1/batchnorm/sub"], "device": "/device:CPU:0", "attr": {"epsilon": {"f": 0.0}, "num_args": {"i": "1"}, "fused_ops": {"list": {"s": ["Qmlhc0FkZA==", "UmVsdQ=="]}}, "dilations": {"list": {"i": ["1", "1", "1", "1"]}}, "T": {"type": "DT_FLOAT"}, "strides": {"list": {"i": ["1", "1", "1", "1"]}}, "filter_format": {"s": "SFdJTw=="}, "padding": {"s": "VkFMSUQ="}, "leakyrelu_alpha": {"f": 0.2}, "TArgs": {"list": {"type": ["DT_FLOAT"]}}, "num_host_args": {"i": "0"}, "use_cudnn_on_gpu": {"b": true}, "data_format": {"s": "TkhXQw=="}, "explicit_paddings": {"list": {}}}}, {"name": "StatefulPartitionedCall/sequential_1/resnet50_1/conv4_block4_2_relu_1/Relu", "op": "_FusedConv2D", "input": ["StatefulPartitionedCall/sequential_1/resnet50_1/conv4_block4_1_relu_1/Relu", "StatefulPartitionedCall/sequential_1/resnet50_1/conv4_block4_2_conv_1/convolution/merged_input", "StatefulPartitionedCall/sequential_1/resnet50_1/conv4_block4_2_bn_1/batchnorm/sub"], "device": "/device:CPU:0", "attr": {"num_host_args": {"i": "0"}, "T": {"type": "DT_FLOAT"}, "dilations": {"list": {"i": ["1", "1", "1", "1"]}}, "explicit_paddings": {"list": {}}, "use_cudnn_on_gpu": {"b": true}, "TArgs": {"list": {"type": ["DT_FLOAT"]}}, "leakyrelu_alpha": {"f": 0.2}, "epsilon": {"f": 0.0}, "padding": {"s": "U0FNRQ=="}, "data_format": {"s": "TkhXQw=="}, "num_args": {"i": "1"}, "filter_format": {"s": "SFdJTw=="}, "fused_ops": {"list": {"s": ["Qmlhc0FkZA==", "UmVsdQ=="]}}, "strides": {"list": {"i": ["1", "1", "1", "1"]}}}}, {"name": "StatefulPartitionedCall/sequential_1/resnet50_1/conv4_block4_3_bn_1/batchnorm/add_1", "op": "_FusedConv2D", "input": ["StatefulPartitionedCall/sequential_1/resnet50_1/conv4_block4_2_relu_1/Relu", "StatefulPartitionedCall/sequential_1/resnet50_1/conv4_block4_3_conv_1/convolution/merged_input", "StatefulPartitionedCall/sequential_1/resnet50_1/conv4_block4_3_bn_1/batchnorm/sub"], "device": "/device:CPU:0", "attr": {"data_format": {"s": "TkhXQw=="}, "dilations": {"list": {"i": ["1", "1", "1", "1"]}}, "use_cudnn_on_gpu": {"b": true}, "strides": {"list": {"i": ["1", "1", "1", "1"]}}, "TArgs": {"list": {"type": ["DT_FLOAT"]}}, "filter_format": {"s": "SFdJTw=="}, "explicit_paddings": {"list": {}}, "leakyrelu_alpha": {"f": 0.2}, "T": {"type": "DT_FLOAT"}, "epsilon": {"f": 0.0}, "padding": {"s": "VkFMSUQ="}, "num_host_args": {"i": "0"}, "fused_ops": {"list": {"s": ["Qmlhc0FkZA=="]}}, "num_args": {"i": "1"}}}, {"name": "StatefulPartitionedCall/sequential_1/resnet50_1/conv4_block4_add_1/Add", "op": "AddV2", "input": ["StatefulPartitionedCall/sequential_1/resnet50_1/conv4_block3_out_1/Relu", "StatefulPartitionedCall/sequential_1/resnet50_1/conv4_block4_3_bn_1/batchnorm/add_1"], "attr": {"T": {"type": "DT_FLOAT"}}}, {"name": "StatefulPartitionedCall/sequential_1/resnet50_1/conv4_block4_out_1/Relu", "op": "Relu", "input": ["StatefulPartitionedCall/sequential_1/resnet50_1/conv4_block4_add_1/Add"], "attr": {"T": {"type": "DT_FLOAT"}}}, {"name": "StatefulPartitionedCall/sequential_1/resnet50_1/conv4_block5_1_relu_1/Relu", "op": "_FusedConv2D", "input": ["StatefulPartitionedCall/sequential_1/resnet50_1/conv4_block4_out_1/Relu", "StatefulPartitionedCall/sequential_1/resnet50_1/conv4_block5_1_conv_1/convolution/merged_input", "StatefulPartitionedCall/sequential_1/resnet50_1/conv4_block5_1_bn_1/batchnorm/sub"], "device": "/device:CPU:0", "attr": {"num_args": {"i": "1"}, "num_host_args": {"i": "0"}, "data_format": {"s": "TkhXQw=="}, "padding": {"s": "VkFMSUQ="}, "TArgs": {"list": {"type": ["DT_FLOAT"]}}, "epsilon": {"f": 0.0}, "leakyrelu_alpha": {"f": 0.2}, "filter_format": {"s": "SFdJTw=="}, "fused_ops": {"list": {"s": ["Qmlhc0FkZA==", "UmVsdQ=="]}}, "dilations": {"list": {"i": ["1", "1", "1", "1"]}}, "T": {"type": "DT_FLOAT"}, "use_cudnn_on_gpu": {"b": true}, "explicit_paddings": {"list": {}}, "strides": {"list": {"i": ["1", "1", "1", "1"]}}}}, {"name": "StatefulPartitionedCall/sequential_1/resnet50_1/conv4_block5_2_relu_1/Relu", "op": "_FusedConv2D", "input": ["StatefulPartitionedCall/sequential_1/resnet50_1/conv4_block5_1_relu_1/Relu", "StatefulPartitionedCall/sequential_1/resnet50_1/conv4_block5_2_conv_1/convolution/merged_input", "StatefulPartitionedCall/sequential_1/resnet50_1/conv4_block5_2_bn_1/batchnorm/sub"], "device": "/device:CPU:0", "attr": {"filter_format": {"s": "SFdJTw=="}, "num_args": {"i": "1"}, "padding": {"s": "U0FNRQ=="}, "fused_ops": {"list": {"s": ["Qmlhc0FkZA==", "UmVsdQ=="]}}, "T": {"type": "DT_FLOAT"}, "TArgs": {"list": {"type": ["DT_FLOAT"]}}, "strides": {"list": {"i": ["1", "1", "1", "1"]}}, "data_format": {"s": "TkhXQw=="}, "dilations": {"list": {"i": ["1", "1", "1", "1"]}}, "epsilon": {"f": 0.0}, "leakyrelu_alpha": {"f": 0.2}, "num_host_args": {"i": "0"}, "explicit_paddings": {"list": {}}, "use_cudnn_on_gpu": {"b": true}}}, {"name": "StatefulPartitionedCall/sequential_1/resnet50_1/conv4_block5_3_bn_1/batchnorm/add_1", "op": "_FusedConv2D", "input": ["StatefulPartitionedCall/sequential_1/resnet50_1/conv4_block5_2_relu_1/Relu", "StatefulPartitionedCall/sequential_1/resnet50_1/conv4_block5_3_conv_1/convolution/merged_input", "StatefulPartitionedCall/sequential_1/resnet50_1/conv4_block5_3_bn_1/batchnorm/sub"], "device": "/device:CPU:0", "attr": {"leakyrelu_alpha": {"f": 0.2}, "strides": {"list": {"i": ["1", "1", "1", "1"]}}, "fused_ops": {"list": {"s": ["Qmlhc0FkZA=="]}}, "num_args": {"i": "1"}, "epsilon": {"f": 0.0}, "explicit_paddings": {"list": {}}, "dilations": {"list": {"i": ["1", "1", "1", "1"]}}, "T": {"type": "DT_FLOAT"}, "data_format": {"s": "TkhXQw=="}, "TArgs": {"list": {"type": ["DT_FLOAT"]}}, "filter_format": {"s": "SFdJTw=="}, "use_cudnn_on_gpu": {"b": true}, "padding": {"s": "VkFMSUQ="}, "num_host_args": {"i": "0"}}}, {"name": "StatefulPartitionedCall/sequential_1/resnet50_1/conv4_block5_add_1/Add", "op": "AddV2", "input": ["StatefulPartitionedCall/sequential_1/resnet50_1/conv4_block4_out_1/Relu", "StatefulPartitionedCall/sequential_1/resnet50_1/conv4_block5_3_bn_1/batchnorm/add_1"], "attr": {"T": {"type": "DT_FLOAT"}}}, {"name": "StatefulPartitionedCall/sequential_1/resnet50_1/conv4_block5_out_1/Relu", "op": "Relu", "input": ["StatefulPartitionedCall/sequential_1/resnet50_1/conv4_block5_add_1/Add"], "attr": {"T": {"type": "DT_FLOAT"}}}, {"name": "StatefulPartitionedCall/sequential_1/resnet50_1/conv4_block6_1_relu_1/Relu", "op": "_FusedConv2D", "input": ["StatefulPartitionedCall/sequential_1/resnet50_1/conv4_block5_out_1/Relu", "StatefulPartitionedCall/sequential_1/resnet50_1/conv4_block6_1_conv_1/convolution/merged_input", "StatefulPartitionedCall/sequential_1/resnet50_1/conv4_block6_1_bn_1/batchnorm/sub"], "device": "/device:CPU:0", "attr": {"epsilon": {"f": 0.0}, "leakyrelu_alpha": {"f": 0.2}, "strides": {"list": {"i": ["1", "1", "1", "1"]}}, "dilations": {"list": {"i": ["1", "1", "1", "1"]}}, "filter_format": {"s": "SFdJTw=="}, "TArgs": {"list": {"type": ["DT_FLOAT"]}}, "fused_ops": {"list": {"s": ["Qmlhc0FkZA==", "UmVsdQ=="]}}, "T": {"type": "DT_FLOAT"}, "use_cudnn_on_gpu": {"b": true}, "data_format": {"s": "TkhXQw=="}, "explicit_paddings": {"list": {}}, "padding": {"s": "VkFMSUQ="}, "num_host_args": {"i": "0"}, "num_args": {"i": "1"}}}, {"name": "StatefulPartitionedCall/sequential_1/resnet50_1/conv4_block6_2_relu_1/Relu", "op": "_FusedConv2D", "input": ["StatefulPartitionedCall/sequential_1/resnet50_1/conv4_block6_1_relu_1/Relu", "StatefulPartitionedCall/sequential_1/resnet50_1/conv4_block6_2_conv_1/convolution/merged_input", "StatefulPartitionedCall/sequential_1/resnet50_1/conv4_block6_2_bn_1/batchnorm/sub"], "device": "/device:CPU:0", "attr": {"explicit_paddings": {"list": {}}, "use_cudnn_on_gpu": {"b": true}, "data_format": {"s": "TkhXQw=="}, "padding": {"s": "U0FNRQ=="}, "num_host_args": {"i": "0"}, "TArgs": {"list": {"type": ["DT_FLOAT"]}}, "strides": {"list": {"i": ["1", "1", "1", "1"]}}, "fused_ops": {"list": {"s": ["Qmlhc0FkZA==", "UmVsdQ=="]}}, "leakyrelu_alpha": {"f": 0.2}, "dilations": {"list": {"i": ["1", "1", "1", "1"]}}, "filter_format": {"s": "SFdJTw=="}, "T": {"type": "DT_FLOAT"}, "epsilon": {"f": 0.0}, "num_args": {"i": "1"}}}, {"name": "StatefulPartitionedCall/sequential_1/resnet50_1/conv4_block6_3_bn_1/batchnorm/add_1", "op": "_FusedConv2D", "input": ["StatefulPartitionedCall/sequential_1/resnet50_1/conv4_block6_2_relu_1/Relu", "StatefulPartitionedCall/sequential_1/resnet50_1/conv4_block6_3_conv_1/convolution/merged_input", "StatefulPartitionedCall/sequential_1/resnet50_1/conv4_block6_3_bn_1/batchnorm/sub"], "device": "/device:CPU:0", "attr": {"leakyrelu_alpha": {"f": 0.2}, "strides": {"list": {"i": ["1", "1", "1", "1"]}}, "epsilon": {"f": 0.0}, "fused_ops": {"list": {"s": ["Qmlhc0FkZA=="]}}, "TArgs": {"list": {"type": ["DT_FLOAT"]}}, "data_format": {"s": "TkhXQw=="}, "use_cudnn_on_gpu": {"b": true}, "padding": {"s": "VkFMSUQ="}, "num_host_args": {"i": "0"}, "dilations": {"list": {"i": ["1", "1", "1", "1"]}}, "T": {"type": "DT_FLOAT"}, "num_args": {"i": "1"}, "filter_format": {"s": "SFdJTw=="}, "explicit_paddings": {"list": {}}}}, {"name": "StatefulPartitionedCall/sequential_1/resnet50_1/conv4_block6_add_1/Add", "op": "AddV2", "input": ["StatefulPartitionedCall/sequential_1/resnet50_1/conv4_block5_out_1/Relu", "StatefulPartitionedCall/sequential_1/resnet50_1/conv4_block6_3_bn_1/batchnorm/add_1"], "attr": {"T": {"type": "DT_FLOAT"}}}, {"name": "StatefulPartitionedCall/sequential_1/resnet50_1/conv4_block6_out_1/Relu", "op": "Relu", "input": ["StatefulPartitionedCall/sequential_1/resnet50_1/conv4_block6_add_1/Add"], "attr": {"T": {"type": "DT_FLOAT"}}}, {"name": "StatefulPartitionedCall/sequential_1/resnet50_1/conv5_block1_0_bn_1/batchnorm/add_1", "op": "_FusedConv2D", "input": ["StatefulPartitionedCall/sequential_1/resnet50_1/conv4_block6_out_1/Relu", "StatefulPartitionedCall/sequential_1/resnet50_1/conv5_block1_0_conv_1/convolution/merged_input", "StatefulPartitionedCall/sequential_1/resnet50_1/conv5_block1_0_bn_1/batchnorm/sub"], "device": "/device:CPU:0", "attr": {"num_args": {"i": "1"}, "TArgs": {"list": {"type": ["DT_FLOAT"]}}, "data_format": {"s": "TkhXQw=="}, "fused_ops": {"list": {"s": ["Qmlhc0FkZA=="]}}, "strides": {"list": {"i": ["1", "2", "2", "1"]}}, "filter_format": {"s": "SFdJTw=="}, "T": {"type": "DT_FLOAT"}, "use_cudnn_on_gpu": {"b": true}, "leakyrelu_alpha": {"f": 0.2}, "dilations": {"list": {"i": ["1", "1", "1", "1"]}}, "explicit_paddings": {"list": {}}, "epsilon": {"f": 0.0}, "num_host_args": {"i": "0"}, "padding": {"s": "VkFMSUQ="}}}, {"name": "StatefulPartitionedCall/sequential_1/resnet50_1/conv5_block1_1_relu_1/Relu", "op": "_FusedConv2D", "input": ["StatefulPartitionedCall/sequential_1/resnet50_1/conv4_block6_out_1/Relu", "StatefulPartitionedCall/sequential_1/resnet50_1/conv5_block1_1_conv_1/convolution/merged_input", "StatefulPartitionedCall/sequential_1/resnet50_1/conv5_block1_1_bn_1/batchnorm/sub"], "device": "/device:CPU:0", "attr": {"leakyrelu_alpha": {"f": 0.2}, "data_format": {"s": "TkhXQw=="}, "filter_format": {"s": "SFdJTw=="}, "padding": {"s": "VkFMSUQ="}, "num_args": {"i": "1"}, "TArgs": {"list": {"type": ["DT_FLOAT"]}}, "epsilon": {"f": 0.0}, "num_host_args": {"i": "0"}, "strides": {"list": {"i": ["1", "2", "2", "1"]}}, "use_cudnn_on_gpu": {"b": true}, "fused_ops": {"list": {"s": ["Qmlhc0FkZA==", "UmVsdQ=="]}}, "dilations": {"list": {"i": ["1", "1", "1", "1"]}}, "explicit_paddings": {"list": {}}, "T": {"type": "DT_FLOAT"}}}, {"name": "StatefulPartitionedCall/sequential_1/resnet50_1/conv5_block1_2_relu_1/Relu", "op": "_FusedConv2D", "input": ["StatefulPartitionedCall/sequential_1/resnet50_1/conv5_block1_1_relu_1/Relu", "StatefulPartitionedCall/sequential_1/resnet50_1/conv5_block1_2_conv_1/convolution/merged_input", "StatefulPartitionedCall/sequential_1/resnet50_1/conv5_block1_2_bn_1/batchnorm/sub"], "device": "/device:CPU:0", "attr": {"num_host_args": {"i": "0"}, "leakyrelu_alpha": {"f": 0.2}, "num_args": {"i": "1"}, "fused_ops": {"list": {"s": ["Qmlhc0FkZA==", "UmVsdQ=="]}}, "data_format": {"s": "TkhXQw=="}, "filter_format": {"s": "SFdJTw=="}, "epsilon": {"f": 0.0}, "TArgs": {"list": {"type": ["DT_FLOAT"]}}, "T": {"type": "DT_FLOAT"}, "use_cudnn_on_gpu": {"b": true}, "padding": {"s": "U0FNRQ=="}, "dilations": {"list": {"i": ["1", "1", "1", "1"]}}, "strides": {"list": {"i": ["1", "1", "1", "1"]}}, "explicit_paddings": {"list": {}}}}, {"name": "StatefulPartitionedCall/sequential_1/resnet50_1/conv5_block1_3_bn_1/batchnorm/add_1", "op": "_FusedConv2D", "input": ["StatefulPartitionedCall/sequential_1/resnet50_1/conv5_block1_2_relu_1/Relu", "StatefulPartitionedCall/sequential_1/resnet50_1/conv5_block1_3_conv_1/convolution/merged_input", "StatefulPartitionedCall/sequential_1/resnet50_1/conv5_block1_3_bn_1/batchnorm/sub"], "device": "/device:CPU:0", "attr": {"TArgs": {"list": {"type": ["DT_FLOAT"]}}, "strides": {"list": {"i": ["1", "1", "1", "1"]}}, "fused_ops": {"list": {"s": ["Qmlhc0FkZA=="]}}, "epsilon": {"f": 0.0}, "filter_format": {"s": "SFdJTw=="}, "num_args": {"i": "1"}, "use_cudnn_on_gpu": {"b": true}, "leakyrelu_alpha": {"f": 0.2}, "explicit_paddings": {"list": {}}, "data_format": {"s": "TkhXQw=="}, "num_host_args": {"i": "0"}, "T": {"type": "DT_FLOAT"}, "dilations": {"list": {"i": ["1", "1", "1", "1"]}}, "padding": {"s": "VkFMSUQ="}}}, {"name": "StatefulPartitionedCall/sequential_1/resnet50_1/conv5_block1_add_1/Add", "op": "AddV2", "input": ["StatefulPartitionedCall/sequential_1/resnet50_1/conv5_block1_0_bn_1/batchnorm/add_1", "StatefulPartitionedCall/sequential_1/resnet50_1/conv5_block1_3_bn_1/batchnorm/add_1"], "attr": {"T": {"type": "DT_FLOAT"}}}, {"name": "StatefulPartitionedCall/sequential_1/resnet50_1/conv5_block1_out_1/Relu", "op": "Relu", "input": ["StatefulPartitionedCall/sequential_1/resnet50_1/conv5_block1_add_1/Add"], "attr": {"T": {"type": "DT_FLOAT"}}}, {"name": "StatefulPartitionedCall/sequential_1/resnet50_1/conv5_block2_1_relu_1/Relu", "op": "_FusedConv2D", "input": ["StatefulPartitionedCall/sequential_1/resnet50_1/conv5_block1_out_1/Relu", "StatefulPartitionedCall/sequential_1/resnet50_1/conv5_block2_1_conv_1/convolution/merged_input", "StatefulPartitionedCall/sequential_1/resnet50_1/conv5_block2_1_bn_1/batchnorm/sub"], "device": "/device:CPU:0", "attr": {"data_format": {"s": "TkhXQw=="}, "fused_ops": {"list": {"s": ["Qmlhc0FkZA==", "UmVsdQ=="]}}, "epsilon": {"f": 0.0}, "num_args": {"i": "1"}, "dilations": {"list": {"i": ["1", "1", "1", "1"]}}, "strides": {"list": {"i": ["1", "1", "1", "1"]}}, "use_cudnn_on_gpu": {"b": true}, "filter_format": {"s": "SFdJTw=="}, "padding": {"s": "VkFMSUQ="}, "explicit_paddings": {"list": {}}, "T": {"type": "DT_FLOAT"}, "num_host_args": {"i": "0"}, "TArgs": {"list": {"type": ["DT_FLOAT"]}}, "leakyrelu_alpha": {"f": 0.2}}}, {"name": "StatefulPartitionedCall/sequential_1/resnet50_1/conv5_block2_2_relu_1/Relu", "op": "_FusedConv2D", "input": ["StatefulPartitionedCall/sequential_1/resnet50_1/conv5_block2_1_relu_1/Relu", "StatefulPartitionedCall/sequential_1/resnet50_1/conv5_block2_2_conv_1/convolution/merged_input", "StatefulPartitionedCall/sequential_1/resnet50_1/conv5_block2_2_bn_1/batchnorm/sub"], "device": "/device:CPU:0", "attr": {"padding": {"s": "U0FNRQ=="}, "TArgs": {"list": {"type": ["DT_FLOAT"]}}, "strides": {"list": {"i": ["1", "1", "1", "1"]}}, "fused_ops": {"list": {"s": ["Qmlhc0FkZA==", "UmVsdQ=="]}}, "T": {"type": "DT_FLOAT"}, "use_cudnn_on_gpu": {"b": true}, "leakyrelu_alpha": {"f": 0.2}, "data_format": {"s": "TkhXQw=="}, "num_args": {"i": "1"}, "num_host_args": {"i": "0"}, "dilations": {"list": {"i": ["1", "1", "1", "1"]}}, "epsilon": {"f": 0.0}, "filter_format": {"s": "SFdJTw=="}, "explicit_paddings": {"list": {}}}}, {"name": "StatefulPartitionedCall/sequential_1/resnet50_1/conv5_block2_3_bn_1/batchnorm/add_1", "op": "_FusedConv2D", "input": ["StatefulPartitionedCall/sequential_1/resnet50_1/conv5_block2_2_relu_1/Relu", "StatefulPartitionedCall/sequential_1/resnet50_1/conv5_block2_3_conv_1/convolution/merged_input", "StatefulPartitionedCall/sequential_1/resnet50_1/conv5_block2_3_bn_1/batchnorm/sub"], "device": "/device:CPU:0", "attr": {"filter_format": {"s": "SFdJTw=="}, "fused_ops": {"list": {"s": ["Qmlhc0FkZA=="]}}, "TArgs": {"list": {"type": ["DT_FLOAT"]}}, "use_cudnn_on_gpu": {"b": true}, "num_host_args": {"i": "0"}, "num_args": {"i": "1"}, "T": {"type": "DT_FLOAT"}, "dilations": {"list": {"i": ["1", "1", "1", "1"]}}, "strides": {"list": {"i": ["1", "1", "1", "1"]}}, "data_format": {"s": "TkhXQw=="}, "leakyrelu_alpha": {"f": 0.2}, "explicit_paddings": {"list": {}}, "epsilon": {"f": 0.0}, "padding": {"s": "VkFMSUQ="}}}, {"name": "StatefulPartitionedCall/sequential_1/resnet50_1/conv5_block2_add_1/Add", "op": "AddV2", "input": ["StatefulPartitionedCall/sequential_1/resnet50_1/conv5_block1_out_1/Relu", "StatefulPartitionedCall/sequential_1/resnet50_1/conv5_block2_3_bn_1/batchnorm/add_1"], "attr": {"T": {"type": "DT_FLOAT"}}}, {"name": "StatefulPartitionedCall/sequential_1/resnet50_1/conv5_block2_out_1/Relu", "op": "Relu", "input": ["StatefulPartitionedCall/sequential_1/resnet50_1/conv5_block2_add_1/Add"], "attr": {"T": {"type": "DT_FLOAT"}}}, {"name": "StatefulPartitionedCall/sequential_1/resnet50_1/conv5_block3_1_relu_1/Relu", "op": "_FusedConv2D", "input": ["StatefulPartitionedCall/sequential_1/resnet50_1/conv5_block2_out_1/Relu", "StatefulPartitionedCall/sequential_1/resnet50_1/conv5_block3_1_conv_1/convolution/merged_input", "StatefulPartitionedCall/sequential_1/resnet50_1/conv5_block3_1_bn_1/batchnorm/sub"], "device": "/device:CPU:0", "attr": {"leakyrelu_alpha": {"f": 0.2}, "epsilon": {"f": 0.0}, "fused_ops": {"list": {"s": ["Qmlhc0FkZA==", "UmVsdQ=="]}}, "num_host_args": {"i": "0"}, "T": {"type": "DT_FLOAT"}, "filter_format": {"s": "SFdJTw=="}, "data_format": {"s": "TkhXQw=="}, "use_cudnn_on_gpu": {"b": true}, "dilations": {"list": {"i": ["1", "1", "1", "1"]}}, "num_args": {"i": "1"}, "strides": {"list": {"i": ["1", "1", "1", "1"]}}, "TArgs": {"list": {"type": ["DT_FLOAT"]}}, "padding": {"s": "VkFMSUQ="}, "explicit_paddings": {"list": {}}}}, {"name": "StatefulPartitionedCall/sequential_1/resnet50_1/conv5_block3_2_relu_1/Relu", "op": "_FusedConv2D", "input": ["StatefulPartitionedCall/sequential_1/resnet50_1/conv5_block3_1_relu_1/Relu", "StatefulPartitionedCall/sequential_1/resnet50_1/conv5_block3_2_conv_1/convolution/merged_input", "StatefulPartitionedCall/sequential_1/resnet50_1/conv5_block3_2_bn_1/batchnorm/sub"], "device": "/device:CPU:0", "attr": {"num_args": {"i": "1"}, "strides": {"list": {"i": ["1", "1", "1", "1"]}}, "use_cudnn_on_gpu": {"b": true}, "dilations": {"list": {"i": ["1", "1", "1", "1"]}}, "leakyrelu_alpha": {"f": 0.2}, "num_host_args": {"i": "0"}, "data_format": {"s": "TkhXQw=="}, "fused_ops": {"list": {"s": ["Qmlhc0FkZA==", "UmVsdQ=="]}}, "TArgs": {"list": {"type": ["DT_FLOAT"]}}, "T": {"type": "DT_FLOAT"}, "padding": {"s": "U0FNRQ=="}, "explicit_paddings": {"list": {}}, "filter_format": {"s": "SFdJTw=="}, "epsilon": {"f": 0.0}}}, {"name": "StatefulPartitionedCall/sequential_1/resnet50_1/conv5_block3_3_bn_1/batchnorm/add_1", "op": "_FusedConv2D", "input": ["StatefulPartitionedCall/sequential_1/resnet50_1/conv5_block3_2_relu_1/Relu", "StatefulPartitionedCall/sequential_1/resnet50_1/conv5_block3_3_conv_1/convolution/merged_input", "StatefulPartitionedCall/sequential_1/resnet50_1/conv5_block3_3_bn_1/batchnorm/sub"], "device": "/device:CPU:0", "attr": {"use_cudnn_on_gpu": {"b": true}, "data_format": {"s": "TkhXQw=="}, "fused_ops": {"list": {"s": ["Qmlhc0FkZA=="]}}, "leakyrelu_alpha": {"f": 0.2}, "explicit_paddings": {"list": {}}, "dilations": {"list": {"i": ["1", "1", "1", "1"]}}, "filter_format": {"s": "SFdJTw=="}, "num_args": {"i": "1"}, "TArgs": {"list": {"type": ["DT_FLOAT"]}}, "padding": {"s": "VkFMSUQ="}, "epsilon": {"f": 0.0}, "strides": {"list": {"i": ["1", "1", "1", "1"]}}, "num_host_args": {"i": "0"}, "T": {"type": "DT_FLOAT"}}}, {"name": "StatefulPartitionedCall/sequential_1/resnet50_1/conv5_block3_add_1/Add", "op": "AddV2", "input": ["StatefulPartitionedCall/sequential_1/resnet50_1/conv5_block2_out_1/Relu", "StatefulPartitionedCall/sequential_1/resnet50_1/conv5_block3_3_bn_1/batchnorm/add_1"], "attr": {"T": {"type": "DT_FLOAT"}}}, {"name": "StatefulPartitionedCall/sequential_1/resnet50_1/conv5_block3_out_1/Relu", "op": "Relu", "input": ["StatefulPartitionedCall/sequential_1/resnet50_1/conv5_block3_add_1/Add"], "attr": {"T": {"type": "DT_FLOAT"}}}, {"name": "StatefulPartitionedCall/sequential_1/resnet50_1/avg_pool_1/Mean", "op": "Mean", "input": ["StatefulPartitionedCall/sequential_1/resnet50_1/conv5_block3_out_1/Relu", "StatefulPartitionedCall/sequential_1/resnet50_1/avg_pool_1/Mean/reduction_indices"], "attr": {"keep_dims": {"b": false}, "T": {"type": "DT_FLOAT"}, "Tidx": {"type": "DT_INT32"}}}, {"name": "StatefulPartitionedCall/sequential_1/dense_1/Relu", "op": "_FusedMatMul", "input": ["StatefulPartitionedCall/sequential_1/resnet50_1/avg_pool_1/Mean", "StatefulPartitionedCall/sequential_1/dense_1/Cast/ReadVariableOp", "StatefulPartitionedCall/sequential_1/dense_1/Add/ReadVariableOp"], "device": "/device:CPU:0", "attr": {"T": {"type": "DT_FLOAT"}, "epsilon": {"f": 0.0}, "transpose_a": {"b": false}, "transpose_b": {"b": false}, "num_args": {"i": "1"}, "fused_ops": {"list": {"s": ["Qmlhc0FkZA==", "UmVsdQ=="]}}, "leakyrelu_alpha": {"f": 0.2}}}, {"name": "StatefulPartitionedCall/sequential_1/dense_1_2/Add", "op": "_FusedMatMul", "input": ["StatefulPartitionedCall/sequential_1/dense_1/Relu", "StatefulPartitionedCall/sequential_1/dense_1_2/Cast/ReadVariableOp", "StatefulPartitionedCall/sequential_1/dense_1_2/Add/ReadVariableOp"], "device": "/device:CPU:0", "attr": {"transpose_b": {"b": false}, "fused_ops": {"list": {"s": ["Qmlhc0FkZA=="]}}, "transpose_a": {"b": false}, "leakyrelu_alpha": {"f": 0.2}, "epsilon": {"f": 0.0}, "num_args": {"i": "1"}, "T": {"type": "DT_FLOAT"}}}, {"name": "StatefulPartitionedCall/sequential_1/dense_1_2/Softmax", "op": "Softmax", "input": ["StatefulPartitionedCall/sequential_1/dense_1_2/Add"], "attr": {"T": {"type": "DT_FLOAT"}}}, {"name": "Identity", "op": "Identity", "input": ["StatefulPartitionedCall/sequential_1/dense_1_2/Softmax"], "attr": {"T": {"type": "DT_FLOAT"}}}], "library": {}, "versions": {"producer": 1766}}, "weightsManifest": [{"paths": ["group1-shard1of24.bin", "group1-shard2of24.bin", "group1-shard3of24.bin", "group1-shard4of24.bin", "group1-shard5of24.bin", "group1-shard6of24.bin", "group1-shard7of24.bin", "group1-shard8of24.bin", "group1-shard9of24.bin", "group1-shard10of24.bin", "group1-shard11of24.bin", "group1-shard12of24.bin", "group1-shard13of24.bin", "group1-shard14of24.bin", "group1-shard15of24.bin", "group1-shard16of24.bin", "group1-shard17of24.bin", "group1-shard18of24.bin", "group1-shard19of24.bin", "group1-shard20of24.bin", "group1-shard21of24.bin", "group1-shard22of24.bin", "group1-shard23of24.bin", "group1-shard24of24.bin"], "weights": [{"name": "StatefulPartitionedCall/sequential_1/resnet50_1/conv5_block1_0_conv_1/convolution/merged_input", "shape": [1, 1, 1024, 2048], "dtype": "float32"}, {"name": "StatefulPartitionedCall/sequential_1/resnet50_1/conv5_block1_0_bn_1/batchnorm/sub", "shape": [1, 1, 1, 2048], "dtype": "float32"}, {"name": "StatefulPartitionedCall/sequential_1/resnet50_1/conv4_block1_0_conv_1/convolution/merged_input", "shape": [1, 1, 512, 1024], "dtype": "float32"}, {"name": "StatefulPartitionedCall/sequential_1/resnet50_1/conv4_block1_0_bn_1/batchnorm/sub", "shape": [1, 1, 1, 1024], "dtype": "float32"}, {"name": "StatefulPartitionedCall/sequential_1/resnet50_1/conv3_block1_0_conv_1/convolution/merged_input", "shape": [1, 1, 256, 512], "dtype": "float32"}, {"name": "StatefulPartitionedCall/sequential_1/resnet50_1/conv3_block1_0_bn_1/batchnorm/sub", "shape": [1, 1, 1, 512], "dtype": "float32"}, {"name": "StatefulPartitionedCall/sequential_1/resnet50_1/conv2_block1_0_conv_1/convolution/merged_input", "shape": [1, 1, 64, 256], "dtype": "float32"}, {"name": "StatefulPartitionedCall/sequential_1/resnet50_1/conv2_block1_0_bn_1/batchnorm/sub", "shape": [1, 1, 1, 256], "dtype": "float32"}, {"name": "StatefulPartitionedCall/sequential_1/resnet50_1/conv1_pad_1/Const", "shape": [4, 2], "dtype": "int32"}, {"name": "StatefulPartitionedCall/sequential_1/resnet50_1/conv1_conv_1/convolution/ReadVariableOp", "shape": [7, 7, 3, 64], "dtype": "float32"}, {"name": "StatefulPartitionedCall/sequential_1/resnet50_1/conv1_conv_1/Reshape", "shape": [1, 1, 1, 64], "dtype": "float32"}, {"name": "StatefulPartitionedCall/sequential_1/resnet50_1/conv1_bn_1/batchnorm/mul", "shape": [1, 1, 1, 64], "dtype": "float32"}, {"name": "StatefulPartitionedCall/sequential_1/resnet50_1/conv1_bn_1/batchnorm/sub", "shape": [1, 1, 1, 64], "dtype": "float32"}, {"name": "StatefulPartitionedCall/sequential_1/resnet50_1/pool1_pad_1/Const", "shape": [4, 2], "dtype": "int32"}, {"name": "StatefulPartitionedCall/sequential_1/resnet50_1/conv2_block1_1_conv_1/convolution/merged_input", "shape": [1, 1, 64, 64], "dtype": "float32"}, {"name": "StatefulPartitionedCall/sequential_1/resnet50_1/conv2_block1_1_bn_1/batchnorm/sub", "shape": [1, 1, 1, 64], "dtype": "float32"}, {"name": "StatefulPartitionedCall/sequential_1/resnet50_1/conv2_block1_2_conv_1/convolution/merged_input", "shape": [3, 3, 64, 64], "dtype": "float32"}, {"name": "StatefulPartitionedCall/sequential_1/resnet50_1/conv2_block1_2_bn_1/batchnorm/sub", "shape": [1, 1, 1, 64], "dtype": "float32"}, {"name": "StatefulPartitionedCall/sequential_1/resnet50_1/conv2_block1_3_conv_1/convolution/merged_input", "shape": [1, 1, 64, 256], "dtype": "float32"}, {"name": "StatefulPartitionedCall/sequential_1/resnet50_1/conv2_block1_3_bn_1/batchnorm/sub", "shape": [1, 1, 1, 256], "dtype": "float32"}, {"name": "StatefulPartitionedCall/sequential_1/resnet50_1/conv2_block2_1_conv_1/convolution/merged_input", "shape": [1, 1, 256, 64], "dtype": "float32"}, {"name": "StatefulPartitionedCall/sequential_1/resnet50_1/conv2_block2_1_bn_1/batchnorm/sub", "shape": [1, 1, 1, 64], "dtype": "float32"}, {"name": "StatefulPartitionedCall/sequential_1/resnet50_1/conv2_block2_2_conv_1/convolution/merged_input", "shape": [3, 3, 64, 64], "dtype": "float32"}, {"name": "StatefulPartitionedCall/sequential_1/resnet50_1/conv2_block2_2_bn_1/batchnorm/sub", "shape": [1, 1, 1, 64], "dtype": "float32"}, {"name": "StatefulPartitionedCall/sequential_1/resnet50_1/conv2_block2_3_conv_1/convolution/merged_input", "shape": [1, 1, 64, 256], "dtype": "float32"}, {"name": "StatefulPartitionedCall/sequential_1/resnet50_1/conv2_block2_3_bn_1/batchnorm/sub", "shape": [1, 1, 1, 256], "dtype": "float32"}, {"name": "StatefulPartitionedCall/sequential_1/resnet50_1/conv2_block3_1_conv_1/convolution/merged_input", "shape": [1, 1, 256, 64], "dtype": "float32"}, {"name": "StatefulPartitionedCall/sequential_1/resnet50_1/conv2_block3_1_bn_1/batchnorm/sub", "shape": [1, 1, 1, 64], "dtype": "float32"}, {"name": "StatefulPartitionedCall/sequential_1/resnet50_1/conv2_block3_2_conv_1/convolution/merged_input", "shape": [3, 3, 64, 64], "dtype": "float32"}, {"name": "StatefulPartitionedCall/sequential_1/resnet50_1/conv2_block3_2_bn_1/batchnorm/sub", "shape": [1, 1, 1, 64], "dtype": "float32"}, {"name": "StatefulPartitionedCall/sequential_1/resnet50_1/conv2_block3_3_conv_1/convolution/merged_input", "shape": [1, 1, 64, 256], "dtype": "float32"}, {"name": "StatefulPartitionedCall/sequential_1/resnet50_1/conv2_block3_3_bn_1/batchnorm/sub", "shape": [1, 1, 1, 256], "dtype": "float32"}, {"name": "StatefulPartitionedCall/sequential_1/resnet50_1/conv3_block1_1_conv_1/convolution/merged_input", "shape": [1, 1, 256, 128], "dtype": "float32"}, {"name": "StatefulPartitionedCall/sequential_1/resnet50_1/conv3_block1_1_bn_1/batchnorm/sub", "shape": [1, 1, 1, 128], "dtype": "float32"}, {"name": "StatefulPartitionedCall/sequential_1/resnet50_1/conv3_block1_2_conv_1/convolution/merged_input", "shape": [3, 3, 128, 128], "dtype": "float32"}, {"name": "StatefulPartitionedCall/sequential_1/resnet50_1/conv3_block1_2_bn_1/batchnorm/sub", "shape": [1, 1, 1, 128], "dtype": "float32"}, {"name": "StatefulPartitionedCall/sequential_1/resnet50_1/conv3_block1_3_conv_1/convolution/merged_input", "shape": [1, 1, 128, 512], "dtype": "float32"}, {"name": "StatefulPartitionedCall/sequential_1/resnet50_1/conv3_block1_3_bn_1/batchnorm/sub", "shape": [1, 1, 1, 512], "dtype": "float32"}, {"name": "StatefulPartitionedCall/sequential_1/resnet50_1/conv3_block2_1_conv_1/convolution/merged_input", "shape": [1, 1, 512, 128], "dtype": "float32"}, {"name": "StatefulPartitionedCall/sequential_1/resnet50_1/conv3_block2_1_bn_1/batchnorm/sub", "shape": [1, 1, 1, 128], "dtype": "float32"}, {"name": "StatefulPartitionedCall/sequential_1/resnet50_1/conv3_block2_2_conv_1/convolution/merged_input", "shape": [3, 3, 128, 128], "dtype": "float32"}, {"name": "StatefulPartitionedCall/sequential_1/resnet50_1/conv3_block2_2_bn_1/batchnorm/sub", "shape": [1, 1, 1, 128], "dtype": "float32"}, {"name": "StatefulPartitionedCall/sequential_1/resnet50_1/conv3_block2_3_conv_1/convolution/merged_input", "shape": [1, 1, 128, 512], "dtype": "float32"}, {"name": "StatefulPartitionedCall/sequential_1/resnet50_1/conv3_block2_3_bn_1/batchnorm/sub", "shape": [1, 1, 1, 512], "dtype": "float32"}, {"name": "StatefulPartitionedCall/sequential_1/resnet50_1/conv3_block3_1_conv_1/convolution/merged_input", "shape": [1, 1, 512, 128], "dtype": "float32"}, {"name": "StatefulPartitionedCall/sequential_1/resnet50_1/conv3_block3_1_bn_1/batchnorm/sub", "shape": [1, 1, 1, 128], "dtype": "float32"}, {"name": "StatefulPartitionedCall/sequential_1/resnet50_1/conv3_block3_2_conv_1/convolution/merged_input", "shape": [3, 3, 128, 128], "dtype": "float32"}, {"name": "StatefulPartitionedCall/sequential_1/resnet50_1/conv3_block3_2_bn_1/batchnorm/sub", "shape": [1, 1, 1, 128], "dtype": "float32"}, {"name": "StatefulPartitionedCall/sequential_1/resnet50_1/conv3_block3_3_conv_1/convolution/merged_input", "shape": [1, 1, 128, 512], "dtype": "float32"}, {"name": "StatefulPartitionedCall/sequential_1/resnet50_1/conv3_block3_3_bn_1/batchnorm/sub", "shape": [1, 1, 1, 512], "dtype": "float32"}, {"name": "StatefulPartitionedCall/sequential_1/resnet50_1/conv3_block4_1_conv_1/convolution/merged_input", "shape": [1, 1, 512, 128], "dtype": "float32"}, {"name": "StatefulPartitionedCall/sequential_1/resnet50_1/conv3_block4_1_bn_1/batchnorm/sub", "shape": [1, 1, 1, 128], "dtype": "float32"}, {"name": "StatefulPartitionedCall/sequential_1/resnet50_1/conv3_block4_2_conv_1/convolution/merged_input", "shape": [3, 3, 128, 128], "dtype": "float32"}, {"name": "StatefulPartitionedCall/sequential_1/resnet50_1/conv3_block4_2_bn_1/batchnorm/sub", "shape": [1, 1, 1, 128], "dtype": "float32"}, {"name": "StatefulPartitionedCall/sequential_1/resnet50_1/conv3_block4_3_conv_1/convolution/merged_input", "shape": [1, 1, 128, 512], "dtype": "float32"}, {"name": "StatefulPartitionedCall/sequential_1/resnet50_1/conv3_block4_3_bn_1/batchnorm/sub", "shape": [1, 1, 1, 512], "dtype": "float32"}, {"name": "StatefulPartitionedCall/sequential_1/resnet50_1/conv4_block1_1_conv_1/convolution/merged_input", "shape": [1, 1, 512, 256], "dtype": "float32"}, {"name": "StatefulPartitionedCall/sequential_1/resnet50_1/conv4_block1_1_bn_1/batchnorm/sub", "shape": [1, 1, 1, 256], "dtype": "float32"}, {"name": "StatefulPartitionedCall/sequential_1/resnet50_1/conv4_block1_2_conv_1/convolution/merged_input", "shape": [3, 3, 256, 256], "dtype": "float32"}, {"name": "StatefulPartitionedCall/sequential_1/resnet50_1/conv4_block1_2_bn_1/batchnorm/sub", "shape": [1, 1, 1, 256], "dtype": "float32"}, {"name": "StatefulPartitionedCall/sequential_1/resnet50_1/conv4_block1_3_conv_1/convolution/merged_input", "shape": [1, 1, 256, 1024], "dtype": "float32"}, {"name": "StatefulPartitionedCall/sequential_1/resnet50_1/conv4_block1_3_bn_1/batchnorm/sub", "shape": [1, 1, 1, 1024], "dtype": "float32"}, {"name": "StatefulPartitionedCall/sequential_1/resnet50_1/conv4_block2_1_conv_1/convolution/merged_input", "shape": [1, 1, 1024, 256], "dtype": "float32"}, {"name": "StatefulPartitionedCall/sequential_1/resnet50_1/conv4_block2_1_bn_1/batchnorm/sub", "shape": [1, 1, 1, 256], "dtype": "float32"}, {"name": "StatefulPartitionedCall/sequential_1/resnet50_1/conv4_block2_2_conv_1/convolution/merged_input", "shape": [3, 3, 256, 256], "dtype": "float32"}, {"name": "StatefulPartitionedCall/sequential_1/resnet50_1/conv4_block2_2_bn_1/batchnorm/sub", "shape": [1, 1, 1, 256], "dtype": "float32"}, {"name": "StatefulPartitionedCall/sequential_1/resnet50_1/conv4_block2_3_conv_1/convolution/merged_input", "shape": [1, 1, 256, 1024], "dtype": "float32"}, {"name": "StatefulPartitionedCall/sequential_1/resnet50_1/conv4_block2_3_bn_1/batchnorm/sub", "shape": [1, 1, 1, 1024], "dtype": "float32"}, {"name": "StatefulPartitionedCall/sequential_1/resnet50_1/conv4_block3_1_conv_1/convolution/merged_input", "shape": [1, 1, 1024, 256], "dtype": "float32"}, {"name": "StatefulPartitionedCall/sequential_1/resnet50_1/conv4_block3_1_bn_1/batchnorm/sub", "shape": [1, 1, 1, 256], "dtype": "float32"}, {"name": "StatefulPartitionedCall/sequential_1/resnet50_1/conv4_block3_2_conv_1/convolution/merged_input", "shape": [3, 3, 256, 256], "dtype": "float32"}, {"name": "StatefulPartitionedCall/sequential_1/resnet50_1/conv4_block3_2_bn_1/batchnorm/sub", "shape": [1, 1, 1, 256], "dtype": "float32"}, {"name": "StatefulPartitionedCall/sequential_1/resnet50_1/conv4_block3_3_conv_1/convolution/merged_input", "shape": [1, 1, 256, 1024], "dtype": "float32"}, {"name": "StatefulPartitionedCall/sequential_1/resnet50_1/conv4_block3_3_bn_1/batchnorm/sub", "shape": [1, 1, 1, 1024], "dtype": "float32"}, {"name": "StatefulPartitionedCall/sequential_1/resnet50_1/conv4_block4_1_conv_1/convolution/merged_input", "shape": [1, 1, 1024, 256], "dtype": "float32"}, {"name": "StatefulPartitionedCall/sequential_1/resnet50_1/conv4_block4_1_bn_1/batchnorm/sub", "shape": [1, 1, 1, 256], "dtype": "float32"}, {"name": "StatefulPartitionedCall/sequential_1/resnet50_1/conv4_block4_2_conv_1/convolution/merged_input", "shape": [3, 3, 256, 256], "dtype": "float32"}, {"name": "StatefulPartitionedCall/sequential_1/resnet50_1/conv4_block4_2_bn_1/batchnorm/sub", "shape": [1, 1, 1, 256], "dtype": "float32"}, {"name": "StatefulPartitionedCall/sequential_1/resnet50_1/conv4_block4_3_conv_1/convolution/merged_input", "shape": [1, 1, 256, 1024], "dtype": "float32"}, {"name": "StatefulPartitionedCall/sequential_1/resnet50_1/conv4_block4_3_bn_1/batchnorm/sub", "shape": [1, 1, 1, 1024], "dtype": "float32"}, {"name": "StatefulPartitionedCall/sequential_1/resnet50_1/conv4_block5_1_conv_1/convolution/merged_input", "shape": [1, 1, 1024, 256], "dtype": "float32"}, {"name": "StatefulPartitionedCall/sequential_1/resnet50_1/conv4_block5_1_bn_1/batchnorm/sub", "shape": [1, 1, 1, 256], "dtype": "float32"}, {"name": "StatefulPartitionedCall/sequential_1/resnet50_1/conv4_block5_2_conv_1/convolution/merged_input", "shape": [3, 3, 256, 256], "dtype": "float32"}, {"name": "StatefulPartitionedCall/sequential_1/resnet50_1/conv4_block5_2_bn_1/batchnorm/sub", "shape": [1, 1, 1, 256], "dtype": "float32"}, {"name": "StatefulPartitionedCall/sequential_1/resnet50_1/conv4_block5_3_conv_1/convolution/merged_input", "shape": [1, 1, 256, 1024], "dtype": "float32"}, {"name": "StatefulPartitionedCall/sequential_1/resnet50_1/conv4_block5_3_bn_1/batchnorm/sub", "shape": [1, 1, 1, 1024], "dtype": "float32"}, {"name": "StatefulPartitionedCall/sequential_1/resnet50_1/conv4_block6_1_conv_1/convolution/merged_input", "shape": [1, 1, 1024, 256], "dtype": "float32"}, {"name": "StatefulPartitionedCall/sequential_1/resnet50_1/conv4_block6_1_bn_1/batchnorm/sub", "shape": [1, 1, 1, 256], "dtype": "float32"}, {"name": "StatefulPartitionedCall/sequential_1/resnet50_1/conv4_block6_2_conv_1/convolution/merged_input", "shape": [3, 3, 256, 256], "dtype": "float32"}, {"name": "StatefulPartitionedCall/sequential_1/resnet50_1/conv4_block6_2_bn_1/batchnorm/sub", "shape": [1, 1, 1, 256], "dtype": "float32"}, {"name": "StatefulPartitionedCall/sequential_1/resnet50_1/conv4_block6_3_conv_1/convolution/merged_input", "shape": [1, 1, 256, 1024], "dtype": "float32"}, {"name": "StatefulPartitionedCall/sequential_1/resnet50_1/conv4_block6_3_bn_1/batchnorm/sub", "shape": [1, 1, 1, 1024], "dtype": "float32"}, {"name": "StatefulPartitionedCall/sequential_1/resnet50_1/conv5_block1_1_conv_1/convolution/merged_input", "shape": [1, 1, 1024, 512], "dtype": "float32"}, {"name": "StatefulPartitionedCall/sequential_1/resnet50_1/conv5_block1_1_bn_1/batchnorm/sub", "shape": [1, 1, 1, 512], "dtype": "float32"}, {"name": "StatefulPartitionedCall/sequential_1/resnet50_1/conv5_block1_2_conv_1/convolution/merged_input", "shape": [3, 3, 512, 512], "dtype": "float32"}, {"name": "StatefulPartitionedCall/sequential_1/resnet50_1/conv5_block1_2_bn_1/batchnorm/sub", "shape": [1, 1, 1, 512], "dtype": "float32"}, {"name": "StatefulPartitionedCall/sequential_1/resnet50_1/conv5_block1_3_conv_1/convolution/merged_input", "shape": [1, 1, 512, 2048], "dtype": "float32"}, {"name": "StatefulPartitionedCall/sequential_1/resnet50_1/conv5_block1_3_bn_1/batchnorm/sub", "shape": [1, 1, 1, 2048], "dtype": "float32"}, {"name": "StatefulPartitionedCall/sequential_1/resnet50_1/conv5_block2_1_conv_1/convolution/merged_input", "shape": [1, 1, 2048, 512], "dtype": "float32"}, {"name": "StatefulPartitionedCall/sequential_1/resnet50_1/conv5_block2_1_bn_1/batchnorm/sub", "shape": [1, 1, 1, 512], "dtype": "float32"}, {"name": "StatefulPartitionedCall/sequential_1/resnet50_1/conv5_block2_2_conv_1/convolution/merged_input", "shape": [3, 3, 512, 512], "dtype": "float32"}, {"name": "StatefulPartitionedCall/sequential_1/resnet50_1/conv5_block2_2_bn_1/batchnorm/sub", "shape": [1, 1, 1, 512], "dtype": "float32"}, {"name": "StatefulPartitionedCall/sequential_1/resnet50_1/conv5_block2_3_conv_1/convolution/merged_input", "shape": [1, 1, 512, 2048], "dtype": "float32"}, {"name": "StatefulPartitionedCall/sequential_1/resnet50_1/conv5_block2_3_bn_1/batchnorm/sub", "shape": [1, 1, 1, 2048], "dtype": "float32"}, {"name": "StatefulPartitionedCall/sequential_1/resnet50_1/conv5_block3_1_conv_1/convolution/merged_input", "shape": [1, 1, 2048, 512], "dtype": "float32"}, {"name": "StatefulPartitionedCall/sequential_1/resnet50_1/conv5_block3_1_bn_1/batchnorm/sub", "shape": [1, 1, 1, 512], "dtype": "float32"}, {"name": "StatefulPartitionedCall/sequential_1/resnet50_1/conv5_block3_2_conv_1/convolution/merged_input", "shape": [3, 3, 512, 512], "dtype": "float32"}, {"name": "StatefulPartitionedCall/sequential_1/resnet50_1/conv5_block3_2_bn_1/batchnorm/sub", "shape": [1, 1, 1, 512], "dtype": "float32"}, {"name": "StatefulPartitionedCall/sequential_1/resnet50_1/conv5_block3_3_conv_1/convolution/merged_input", "shape": [1, 1, 512, 2048], "dtype": "float32"}, {"name": "StatefulPartitionedCall/sequential_1/resnet50_1/conv5_block3_3_bn_1/batchnorm/sub", "shape": [1, 1, 1, 2048], "dtype": "float32"}, {"name": "StatefulPartitionedCall/sequential_1/resnet50_1/avg_pool_1/Mean/reduction_indices", "shape": [2], "dtype": "int32"}, {"name": "StatefulPartitionedCall/sequential_1/dense_1/Cast/ReadVariableOp", "shape": [2048, 512], "dtype": "float32"}, {"name": "StatefulPartitionedCall/sequential_1/dense_1/Add/ReadVariableOp", "shape": [512], "dtype": "float32"}, {"name": "StatefulPartitionedCall/sequential_1/dense_1_2/Cast/ReadVariableOp", "shape": [512, 2], "dtype": "float32"}, {"name": "StatefulPartitionedCall/sequential_1/dense_1_2/Add/ReadVariableOp", "shape": [2], "dtype": "float32"}]}]}